auto_pruning_model.pth (torch, 25985 bytes, 11 tensors)

conv1.weight f4 [10, 1, 5, 5]
000000 2c 60 c5 bd 81 6e 8d 3e 75 43 2c 3e 3a 59 75 3e
       -0.09637484 0.2762337 0.16822608 0.23959818
000010 37 4c 62 3e f1 65 fb 3d 09 4f 82 3e 3d c3 6d 3e
       0.22099386 0.12275303 0.25450924 0.23219009
000020 dc 99 61 3e 46 5c 8f 3d 7a 1b a9 bd 82 de 12 bd
       0.22031349 0.07000022 -0.08257194 -0.03585673
000030 6f b1 2c 3d 5d 7c 07 bd 41 d9 b9 3d df 0b 5b bd
       0.0421614 -0.033077586 0.09074641 -0.053478118
000040 44 9c 45 be 2b e5 97 be ae b3 6f be 6a a4 81 be
       -0.19297892 -0.2966703 -0.23408386 -0.2532075
000050 08 2a 94 bd a6 c8 e1 bd 2b 7b 1d be d8 84 16 be
       -0.07234579 -0.11024599 -0.15379016 -0.14699113
000060 f1 d3 86 be a4 4e 26 3e ae f4 8f 3e dc 97 bd 3e
       -0.26333573 0.16240937 0.28116363 0.37029922
000070 37 4a 57 3e 08 1e 2b be 71 04 84 be 31 ce 09 bd
       0.21024404 -0.16710675 -0.2578464 -0.033643905
000080 7c 10 ac 3e 78 fa 88 3e 02 d1 a2 3e 3a 59 a8 be
       0.33606327 0.26753592 0.31800085 -0.32880574
000090 9d 80 c8 b9 18 31 86 bd 99 8f 8e 3e 89 cb 85 3e
       -0.00038242797 -0.06552333 0.2784393 0.26131848
0000a0 4e 45 bd be 1d ca cd bd fc e0 5f be 84 57 bf bd
       -0.36966938 -0.10048316 -0.21863168 -0.09342864
0000b0 4c 64 85 3d 48 9c 69 be 67 bf b7 be e1 88 86 be
       0.06513271 -0.22813523 -0.35888216 -0.26276305
0000c0 38 23 07 be 22 7b c6 bd 93 88 a2 3e 04 7c c3 3e
       -0.13197029 -0.096914545 0.31744823 0.38180554
0000d0 df d4 1f 3e c6 76 4b bd 95 d9 65 3e bf 94 f4 3c
       0.15608548 -0.049673818 0.22446282 0.029856084
0000e0 d8 19 4d bd bb 6c 6c 3e 23 b7 53 3e 52 f0 7b 3e
       -0.050073475 0.23088352 0.2067533 0.24603394
0000f0 e3 51 2e be ab df 4f 3c 98 97 f7 3d 56 68 16 3e
       -0.17023425 0.012687604 0.12089461 0.14688239
000100 4f 5f 0a be 54 34 16 be 53 32 3c 3e 23 b6 57 3d
       -0.1351292 -0.14668399 0.18378572 0.052663933
000110 0c b7 10 3e 0f b5 94 bd 9b 34 37 3d 22 fc be 3d
       0.14132327 -0.07261097 0.044727903 0.09325434
000120 7a 9f f6 3d b7 c1 3a 3d f3 bc af be 3e 01 7e 3d
       0.120421365 0.045594897 -0.34323844 0.062012903
000130 4e c5 62 be a0 6d 76 be e6 c4 c1 bd 83 1c d1 bd
       -0.22145578 -0.24065256 -0.094613835 -0.10210516
000140 68 8e 79 3e 2a 8b 9b bd 89 a3 96 be 58 b7 2c bb
       0.2437073 -0.07594903 -0.29421642 -0.0026354399
000150 50 c5 02 be 92 58 b3 3e d0 38 8a 3e 56 d1 0d be
       -0.12770581 0.3502851 0.2699647 -0.13849387
000160 4f b9 90 bc 34 54 49 3d 1a 4b 2e 3c 43 44 a8 3d
       -0.017666487 0.049152568 0.010638023 0.08216145
000170 6d 7e 2b 3e 15 99 a8 3d 03 db af bc f6 3d 91 3d
       0.16747446 0.08232323 -0.021466738 0.07091896
000180 a6 6b ab 3e c0 9a 89 3d ec f7 3c 3e 84 fc 3c 3e
       0.33480567 0.06718969 0.1845395 0.18455702
000190 62 a6 2b be 44 d5 48 be 76 c9 18 3e cb 63 4e 3d
       -0.16762689 -0.19612604 0.14920601 0.05038814
0001a0 f3 11 52 3e 44 4e eb 3d ba cf 3b 3e 11 e0 a9 3e
       0.2051466 0.11489537 0.1834096 0.33178762
0001b0 67 7e b3 3e ec fd 86 bd e3 f0 e3 3d ab 61 19 3e
       0.35057375 -0.065914005 0.1112993 0.14978664
0001c0 52 25 dd 3d fb 69 35 3e c5 76 d3 bd 7d 43 20 be
       0.10798134 0.1771621 -0.10325388 -0.15650745
0001d0 a8 31 81 be e9 d8 eb bd d3 e5 74 3e 33 ab b3 bc
       -0.25233197 -0.11515982 0.23915796 -0.02193222
0001e0 d2 50 d4 bd 46 35 ad be f3 2d ab be f9 d9 23 bd
       -0.10366978 -0.33829707 -0.33433494 -0.040002797
0001f0 22 81 5c 3e 30 b1 83 3e 00 bd 04 3d cb 0f 31 3e
       0.21533635 0.2572112 0.032406807 0.17291181
000200 be af 5a 3e 8b a3 e5 3d e5 57 1c 3e d8 49 92 3e
       0.21356103 0.11212834 0.15267904 0.28571963
000210 5c a6 60 3e ac 41 c8 3c 87 a9 69 be dc 1b 4d be
       0.21938461 0.024445377 -0.22818576 -0.20030159
000220 14 b1 eb bd dc 68 a0 bc bd 15 22 be 0a b3 67 3d
       -0.11508384 -0.01958125 -0.15828605 0.05656723
000230 5d 6b 28 3c 8c 44 ce bd 3b b9 ea 3d c5 01 29 3e
       0.010279504 -0.10071668 0.11461111 0.16504581
000240 1a b0 95 3e 8d 52 f8 3d e5 86 73 bd 29 a7 86 3e
       0.29235917 0.1212512 -0.059454817 0.26299408
000250 3e 9e a9 3d 9c 8a b6 3d af 8f a8 be 10 46 8e be
       0.082821354 0.089131564 -0.32922122 -0.27787828
000260 ab c9 4a be 81 bc a1 bc ee ee 8a 3e 53 c3 b7 be
       -0.19803493 -0.019743206 0.27135414 -0.35891208
000270 6c 3e 90 be 2f f1 3d bb ec c3 26 3e 94 82 ba 3e
       -0.28172624 -0.0028982868 0.16285676 0.36427748
000280 5c 69 c6 be c7 a5 91 bd 63 48 2b bc 0e 56 9a 3e
       -0.38752258 -0.07111698 -0.01045427 0.3014378
000290 8e 9c 3d 3e e8 41 ab be 7f 0c bd bd 9b 96 88 3e
       0.18516752 -0.3344872 -0.09230899 0.26677403
0002a0 95 f4 b7 3e 38 86 83 3e e3 29 9f 3d 23 47 39 3e
       0.3592879 0.25688338 0.07771661 0.18093543
0002b0 90 06 59 3e c4 49 21 3e c6 88 b4 bc 13 1a e0 3d
       0.2119391 0.15750796 -0.022037875 0.10942473
0002c0 f5 72 2e bc fd 39 80 3c 9b fc 73 be 7e 46 20 be
       -0.010647525 0.015652651 -0.2382683 -0.1565189
0002d0 61 36 ef bd ca 39 ba 3d 61 2e a6 be a6 4f bd be
       -0.11680294 0.09093054 -0.3245726 -0.3697483
0002e0 49 f5 5e be 5f df 4b bc d5 75 8d bb 5f 17 25 be
       -0.21773256 -0.012443393 -0.004317025 -0.16122197
0002f0 2c 25 1e be 56 97 e2 ba 40 5d 97 3e cd c0 df bd
       -0.15443867 -0.0017287533 0.29563332 -0.10925446
000300 93 53 89 3e 9e 16 c4 3e 93 64 d9 3e 15 bc 18 bd
       0.26821575 0.38298506 0.42459545 -0.037288744
000310 22 b9 36 3e 4d 3d 0f 3e 08 17 d1 3e 80 4d 21 3c
       0.1784406 0.13988228 0.40837884 0.009845138
000320 3a d0 95 3e 84 79 f7 3d 68 1d b9 bd 7d 0a 29 be
       0.29260427 0.12083724 -0.09038812 -0.16507907
000330 a4 85 19 be d4 b5 92 3e d5 ef 22 3e f0 fc 4b bd
       -0.14992386 0.2865435 0.15911801 -0.049801767
000340 8c be e4 be 49 3e 1b be 7d 9b ac 3e 90 c2 a2 3e
       -0.44676626 -0.15160479 0.33712378 0.31789064
000350 e0 9d fa 3c 21 02 c3 be 9d a3 a8 be 17 f7 a0 3e
       0.030592859 -0.38087562 -0.32937327 0.31438515
000360 66 7d 5c 3d 87 81 70 3e 06 42 84 be 53 e7 9c be
       0.053830527 0.23486911 -0.25831622 -0.30645236
000370 38 68 2d 3e 6f 14 c8 3d a7 08 6f 3d fa 5c 7e 3d
       0.16934288 0.097695224 0.05835786 0.062100388
000380 79 f0 78 bb 48 fb f8 3d ae 2c 3d bd 35 52 93 bd
       -0.003798513 0.12157303 -0.046185188 -0.07193414
000390 81 3f a1 3e ad 4e 22 3d d7 06 32 be dd 22 1b 3d
       0.31493762 0.039625812 -0.17385422 0.037875045
0003a0 61 1f 0d be b9 e8 10 3e 00 70 5d 3e 47 8b 8e be
       -0.13781501 0.14151277 0.21624756 -0.27840635
0003b0 b1 b8 a0 be 0c d4 36 be a4 a5 7e bd 36 2b f9 bb
       -0.31390908 -0.17854327 -0.062169686 -0.007604028
0003c0 57 28 26 be be c0 29 be 65 b6 b3 be 42 db 93 be
       -0.16226326 -0.16577432 -0.35100093 -0.28878218
0003d0 8e c8 82 be a3 d8 73 3e e2 39 44 3e 61 74 27 bd
       -0.25543636 0.23813109 0.19162706 -0.040882472
0003e0 c8 22 44 bd 56 3e 55 bd
       -0.047884732 -0.0520614

conv1.bias f4 [10]
000000 47 e7 3b bd db 0c 93 bd e2 41 2d 3e c0 d6 21 3e
       -0.04587486 -0.07180186 0.16919664 0.15804577
000010 d3 b7 f4 3d 9f ae 6d 3d 89 93 e5 3d d0 e9 10 3e
       0.11949124 0.05802786 0.11209781 0.14151692
000020 8a c0 11 be 21 cc b3 3d
       -0.14233604 0.08779169

conv2.1.weight f4 [8, 8, 5, 5]
000000 b5 50 d4 bc 73 5c 2e 3b 64 6f b3 bd 7a 6a 55 be
       -0.02591739 0.0026605397 -0.087614805 -0.20841399
000010 af 97 2c be 71 2f b1 bd 42 c9 4e 3c 94 46 85 bd
       -0.16854738 -0.08651627 0.012621226 -0.06507602
000020 b8 b9 5c 3d 4e 95 41 3e ce 80 7d 3d 38 9d 20 3e
       0.053888053 0.18904611 0.061890416 0.15684974
000030 64 67 e2 3d 89 45 85 3e ea 75 98 3e f5 6b c0 3d
       0.110548764 0.26029614 0.2977746 0.09395591
000040 a3 ff 3a 3e ad 4e 8e 3e 98 d3 a9 3e 25 80 d4 3e
       0.1826158 0.277944 0.33169246 0.41504017
000050 a4 37 54 3d 27 f0 39 3e 56 0e 82 3e 22 6a 4d 3e
       0.051810876 0.18158017 0.25401562 0.20060018
000060 31 34 0d 3e eb 56 55 3d dd 1e d7 bd 43 c7 84 be
       0.1378944 0.052084845 -0.105039336 -0.25933275
000070 80 2a 4b be 5e 16 cd 3c d7 dd 08 3e 70 93 ca bd
       -0.19840431 0.02503508 0.13365875 -0.09891403
000080 bd d5 a8 bd c6 dd bf bc a5 92 50 3e 36 cd 3f 3e
       -0.08243892 -0.02342118 0.2036844 0.18730626
000090 87 e4 2a bc 77 81 36 bb bf e9 5c 3e 5f 76 1b 3e
       -0.010430462 -0.0027848163 0.21573542 0.15181874
0000a0 09 f9 82 bd 45 28 f4 bd d8 b4 68 bd 36 02 5e 3d
       -0.06395156 -0.11921743 -0.05681309 0.054201327
0000b0 50 f6 0a bd 3c dd 36 3c 29 1b 21 bd d3 e6 c7 bc
       -0.03392631 0.011161145 -0.039332543 -0.024402058
0000c0 20 d2 2f 3e 82 3e f9 3d b1 12 63 bc 29 8e e4 3d
       0.1717 0.121701255 -0.013859437 0.111599274
0000d0 ce 85 8b 3d a2 82 08 3e 88 de 21 be b9 f2 11 bd
       0.068126306 0.13331082 -0.15807545 -0.03563187
0000e0 da 53 0f 3e 27 62 e4 bb bb a6 78 3d a7 58 03 3d
       0.1399683 -0.0069697085 0.06070588 0.032066967
0000f0 76 91 0d 3d a8 4e 74 bd 71 1c 6f bd 48 99 b7 3d
       0.03456255 -0.059645325 -0.058376733 0.08964783
000100 eb bc 0e 3e a6 5d ba 3b 4d 12 91 bd fe d3 5b bb
       0.13939254 0.0056874333 -0.07083569 -0.0033543105
000110 48 c1 8b 3d 18 96 a5 3d 0a 38 1c be 68 29 ff bd
       0.06823975 0.08085269 -0.15255752 -0.124590695
000120 69 14 e4 bc be 2c fc 3c 5c 82 0d bd 5b 19 31 3d
       -0.027841764 0.030783053 -0.03454815 0.04323707
000130 f8 37 ce 3d 76 61 48 3d e5 60 d2 bd d0 69 22 bd
       0.10069269 0.04892107 -0.102723874 -0.039651692
000140 05 9a 90 bc fb e9 39 3d dd 3b 60 bc ae a7 55 3c
       -0.017651567 0.045389157 -0.0136861475 0.013040466
000150 9e 1e 0e be 32 1c c0 bd 97 0a 63 bb b1 b2 b1 bc
       -0.13878867 -0.09380378 -0.0034643763 -0.021691652
000160 7f 15 19 be 3a be 40 be 97 99 e3 3a 11 8e 74 bd
       -0.14949606 -0.18822566 0.0017364499 -0.059705798
000170 10 5c 3e be 17 4f 2e be 4a 52 2c bd 8d d8 5b bd
       -0.18589807 -0.17022358 -0.042070664 -0.053673316
000180 c0 fd 51 3d db 62 ea bc 18 46 a2 bd 6a 4e 21 3e
       0.051267385 -0.028611591 -0.079235256 0.15752569
000190 3d 9a 39 bd 58 6f 24 be 36 e2 cb bd f8 94 bd bd
       -0.04531311 -0.160581 -0.09955256 -0.09256929
0001a0 31 7c b4 bc 93 de 06 be 3b 17 b0 bd 3f 6f b6 bc
       -0.022031875 -0.13170843 -0.08598181 -0.022269843
0001b0 5d 80 ba bc 43 a1 8a bc 80 07 d5 bd 0c 4a 39 bd
       -0.022766287 -0.016922599 -0.10401821 -0.045236632
0001c0 f5 1f c2 3d e3 14 19 3d fa c1 63 bd db 75 a7 bd
       0.094787516 0.037373435 -0.055604912 -0.08176776
0001d0 99 44 7f 3d 07 8d ea 3d 4a bd ed 3c c5 8f f6 bd
       0.06232128 0.1145268 0.029020924 -0.120391406
0001e0 89 f1 b4 3c b7 f8 c8 3c a8 d6 69 3d 48 d7 9c bd
       0.02208783 0.024532659 0.057089478 -0.07658249
0001f0 e3 a3 24 be 5e 17 a8 bd ed f8 05 bc 1d bf 33 bd
       -0.16078143 -0.08207582 -0.008177024 -0.04388343
000200 c5 b5 ab bd 1e 39 0c be a2 45 ae bc c7 50 a3 3c
       -0.08384279 -0.13693663 -0.021273438 0.019935979
000210 8c 23 e8 bc 91 1d 43 bd cb 35 5e bd aa 05 97 ba
       -0.028337263 -0.04763562 -0.05425052 -0.0011522074
000220 be 57 31 bd 26 1b be bd 52 16 70 bd fe 3d 5c bc
       -0.043296568 -0.09282522 -0.058615036 -0.013442514
000230 f1 66 a7 3c 31 24 10 bd e3 28 38 3d 56 00 22 3d
       0.020434828 -0.035190765 0.044960868 0.0395511
000240 56 cb 3e 3d 04 62 8d 3d 4c 95 d0 3d 6a e4 38 3d
       0.046580635 0.069034606 0.10184726 0.045139708
000250 20 21 25 3e 1a 86 2a 3e 75 0a e4 3b 3a dc a8 3d
       0.16125917 0.16652718 0.0069592544 0.0824513
000260 ae 6f 1b 3d 21 d3 2b 3e ba c8 7f bc dd f6 a8 3b
       0.037948303 0.16779758 -0.015611822 0.0051563815
000270 6f de 47 bd 99 05 0d bd 5b a7 35 3d 5c 9c b9 bc
       -0.048796114 -0.034429166 0.044349056 -0.022657566
000280 8d 86 72 bc df aa 4e bd ce 01 af bc fc 18 73 bd
       -0.014802587 -0.050455924 -0.021363165 -0.05935
000290 55 2a b3 bd a5 b0 31 bc ce 1f 53 bd 56 36 01 3c
       -0.087483086 -0.010845338 -0.051544003 0.00788649
0002a0 af 9b 44 bd 98 ab e8 3c f0 b1 4b 3c 76 9b 5c bd
       -0.048000034 0.028402135 0.01243256 -0.053859197
0002b0 37 ce 28 3d 84 0e 90 3d 0b 68 ac 3d 3a 93 00 bd
       0.041212287 0.07034019 0.08418282 -0.031390406
0002c0 8e f4 5a 3d bb 17 5c bc 3a 6e c7 bb b7 f6 b9 3d
       0.05345588 -0.013433392 -0.006086138 0.0908026
0002d0 bd 12 68 3d c0 d1 a1 3d 76 62 18 3d e0 88 1e 3e
       0.056658495 0.07901335 0.037203275 0.15481901
0002e0 9b 0a 5e 3d 1f f4 a7 3c c7 8b ac 3d 62 57 94 3d
       0.054209333 0.020502148 0.08425098 0.072432294
0002f0 8c 64 b5 3c 86 76 17 bb e2 34 32 3b 2e 44 a9 3d
       0.022142671 -0.0023111417 0.0027192165 0.08264957
000300 f1 4c 57 3d 11 16 79 3d dc 88 c6 3c 0e 02 33 38
       0.05256361 0.06081206 0.024235182 4.267884e-05
000310 36 84 8e bd f6 25 c3 bc 22 4e 0e bd 7f 97 33 3d
       -0.06958811 -0.023821812 -0.034742482 0.04384565
000320 11 25 b9 bb a0 04 c2 bd 1a e6 42 be 09 58 4a be
       -0.0056501706 -0.094735384 -0.1903309 -0.19760145
000330 c3 a5 2e bd f9 7e 93 be 25 98 6a be a6 b1 8c be
       -0.04263855 -0.2880781 -0.22909601 -0.27479285
000340 9e 89 2e be a6 54 38 bd 79 52 46 be 26 7e 31 be
       -0.17044684 -0.045002602 -0.19367398 -0.17333278
000350 87 1c 45 be 1c 6a 36 bd b1 e0 32 bc 04 b2 10 3e
       -0.19249164 -0.044534788 -0.010917828 0.14130408
000360 08 b7 23 bd 8d c1 bb bd 23 20 a2 bd fc bc 40 bd
       -0.039969474 -0.09167776 -0.07916286 -0.04705523
000370 f1 32 28 be 70 ff 87 bd ea 1b d9 bd 5f 7a ec bd
       -0.16425683 -0.06640518 -0.10601027 -0.11546778
000380 88 7b 06 bd 5a 2d 6c be a5 ca 60 be 23 f3 05 be
       -0.032832652 -0.23064175 -0.21952303 -0.1308103
000390 05 4c b6 bd dd 00 f0 bd f9 5a 5e be 83 68 7d be
       -0.08901218 -0.11718915 -0.21714391 -0.247469
0003a0 81 53 8a be a4 90 8a be 34 9f 64 be 10 6c 14 be
       -0.27016833 -0.27063477 -0.22326356 -0.14494348
0003b0 16 c1 41 bd 47 a5 68 be 83 6f 40 be 21 7b d4 bd
       -0.04730328 -0.22719298 -0.18792538 -0.103750475
0003c0 81 cd 9a bb 9c bc ad 3d 0a 34 10 3e 77 d9 0a 3d
       -0.004724205 0.0848324 0.14082351 0.033898797
0003d0 b0 67 9d bd 68 b3 ee 3d 6f 60 f2 3d b4 cc e0 3c
       -0.076857924 0.11655313 0.118347995 0.02744136
0003e0 d5 31 a1 3c a4 4c 5d 3d 1e f9 b1 3b b8 41 5f bc
       0.019677082 0.05402817 0.0054313084 -0.013626508
0003f0 26 99 f4 bc 71 a4 4f 3c da b4 06 3d c8 90 21 3e
       -0.029858183 0.012673483 0.032887317 0.15777886

conv2.2.weight f4 [20, 8, 1, 1]
000000 8f 45 a7 be d8 46 99 3e 77 87 e8 be df ef d7 3c
       -0.32670256 0.29936862 -0.4541585 0.026359497
000010 c8 b5 1e bf 5a 07 3a be 99 2d 78 be be 3d f5 3c
       -0.61996126 -0.18166867 -0.24236144 0.029936668
000020 93 d1 99 3e a8 4b d6 3e 45 a9 02 3e 34 db 0e bd
       0.30042705 0.41854596 0.12759884 -0.034877017
000030 b7 84 6f be 93 c5 92 3e a5 0b 16 3e 64 00 55 3e
       -0.2339047 0.28666362 0.1465288 0.2080093
000040 85 1f 0f be 4d 23 de 3e 8e 6a 1a be 5b b5 84 3e
       -0.13976867 0.43386307 -0.1507971 0.25919613
000050 67 6c 9a be d6 18 b1 3e fd 6e 8a 3e 0f ff 8f be
       -0.3016083 0.3458926 0.27037802 -0.28124282
000060 4f 0c 9b be cd 5f 32 3d cb 52 b3 3d 49 a9 8d be
       -0.30282828 0.043548394 0.08756026 -0.27668217
000070 42 1d a7 3e e1 38 74 3e 2c ce 52 bd f8 57 4b 3d
       0.3263951 0.23849823 -0.051466152 0.04964444
000080 46 b6 17 3d d6 72 8e be cb bc 94 be dd ce 31 3e
       0.037039064 -0.27821988 -0.29050288 0.17364068
000090 d3 b5 bc 3a f7 e3 09 3f d1 ed 60 be 07 a7 5a be
       0.001439745 0.5386347 -0.2196572 -0.21352778
0000a0 7e f6 e4 bc 43 d0 f0 3d 42 a6 02 3f a5 69 f1 3e
       -0.027949568 0.11758473 0.5103494 0.47150913
0000b0 6e 25 2d bd 50 57 a3 bd 50 00 a7 be ea 3c c3 bd
       -0.042272024 -0.07975638 -0.32617426 -0.09533103
0000c0 fe ae cc be d4 e2 2c 3d d9 d4 81 3d 8e f3 9f bc
       -0.39977258 0.042208508 0.063394256 -0.019525316
0000d0 2b 60 94 be d7 69 5d 3e ac 81 b3 bc 73 4a 31 3f
       -0.2897962 0.21622406 -0.021912418 0.69254225
0000e0 28 40 ab 3e 02 68 be 3d 55 2a 97 bd e6 0e 22 be
       0.33447385 0.09297182 -0.07381121 -0.15825996
0000f0 7f 51 5f 3d d5 88 84 3d 94 f8 0b bc 2b f6 10 3e
       0.05452108 0.06471411 -0.008543152 0.14156406
000100 f2 27 91 bd a4 fd 90 3e 5e 8b d1 bd 9a c8 98 be
       -0.07087697 0.28318512 -0.1023166 -0.29840547
000110 be 9e 03 be f5 28 dc 3d 41 e9 5e be ca f0 0c be
       -0.12853524 0.107499994 -0.21768667 -0.13763729
000120 cf 98 28 3d bd 3d 8a bd da 22 d7 3d db a2 ec be
       0.041161355 -0.06750057 0.10504694 -0.46218
000130 91 1b 42 be 1f 33 81 be ba 38 57 3d 7c a7 7d bd
       -0.18955828 -0.25234315 0.052544333 -0.061927304
000140 ab 4d 60 3d a5 18 0a be b8 25 e5 3e 83 aa 55 3e
       0.05476157 -0.13485964 0.4475534 0.20865826
000150 ed fc 06 bd c5 92 50 3c 0b c6 13 bf 90 6a 2e 3e
       -0.032956053 0.012730305 -0.57724065 0.17032838
000160 4c 29 c8 3e 5d 79 0d bd 22 5c 00 be 16 75 81 3d
       0.39094007 -0.03453957 -0.12535146 0.063211605
000170 63 b8 a7 3d 29 f9 15 3c ca 8c a3 bd 4d 60 98 3e
       0.08189466 0.009153643 -0.07985838 0.29760972
000180 83 2f 1e 3e 96 f4 00 3e f0 1e 77 3e 44 70 fa be
       0.15447812 0.12593302 0.24132895 -0.48913777
000190 1e c5 06 be 14 2e 64 3e 17 69 bf be 6a 2d 65 be
       -0.13161132 0.22283202 -0.37384865 -0.22380605
0001a0 10 04 98 bd 0d 5b ea be 3a 0e 4b 3e bc 69 20 be
       -0.0742265 -0.4577259 0.19829646 -0.15665334
0001b0 77 a0 d3 be f9 ce 87 3e 0d 47 db 3e bb 3b 0b be
       -0.41333362 0.26525095 0.42827645 -0.13597004
0001c0 7e ff 0b 3e 5c 2e d9 be 39 da 29 be 8b b4 40 3b
       0.13671681 -0.42418182 -0.16587152 0.0029404487
0001d0 4f 61 c4 bd b7 1d a3 3e 1e 33 bb be 78 ee a4 3d
       -0.09588873 0.31858608 -0.36562437 0.08053297
0001e0 cc 4c 78 bc 41 c1 8c be 2f 61 9e be f1 00 70 bc
       -0.015155029 -0.2749119 -0.3093352 -0.014648662
0001f0 a7 62 13 be f3 ad 49 be 77 63 d3 bd 97 88 1c be
       -0.14393102 -0.19695263 -0.10321706 -0.1528648
000200 be b9 40 be 7d a9 e6 3d b4 81 1c 3d 42 11 75 be
       -0.18820855 0.11262796 0.038209632 -0.23932365
000210 9d 32 8f 3e e8 75 5d 3e 12 ea 38 bd b2 75 6f be
       0.27968302 0.21627009 -0.0451451 -0.23384741
000220 41 c6 af 3e ce 8f 4e 3d 01 fb 04 3d 82 ac 6f bd
       0.34330943 0.05043011 0.03246594 -0.058514126
000230 a8 ae 3e bd f6 38 42 3d d6 a2 3c bc 8e 3f 61 be
       -0.046553284 0.047417603 -0.0115134325 -0.219969
000240 59 6e 67 3e 35 b4 30 bd 93 f7 2f b8 9b 79 73 3e
       0.22600688 -0.04314061 -4.1953823e-05 0.23776858
000250 37 5b 38 bd 42 16 82 be c5 31 a2 bd 22 bf 57 be
       -0.045008864 -0.25407606 -0.07919649 -0.21069005
000260 61 9d 3c 3d b4 d9 bb be c7 05 b6 3e 20 81 5b be
       0.046048526 -0.36689532 0.35551283 -0.21435976
000270 7b 89 8f be f4 5a e5 bc 6f 33 0a 3e 75 14 3d bd
       -0.28034577 -0.027997471 0.13496183 -0.046162087

conv2.2.bias f4 [20]
000000 51 79 48 3d 12 c4 a4 bd 8e f4 a0 bc c6 06 7c bd
       0.04894382 -0.0804521 -0.019647863 -0.061529897
000010 08 95 0f bd 7b c0 5e bd 6b 45 7b 3d 04 db 79 bc
       -0.035054237 -0.054382782 0.0613455 -0.015249971
000020 8c 34 81 bd 9a 4b 12 3c 71 93 ac bd 8d f9 49 bd
       -0.06308851 0.008929158 -0.0842656 -0.049310256
000030 bd 17 de bb 24 91 5e ba 00 18 dd bd db 5a 3c bd
       -0.006777732 -0.00084902556 -0.10795593 -0.045985084
000040 22 0f 02 bd dd 45 db 3b 92 14 c4 3c 63 8f 16 3c
       -0.031752713 0.006691678 0.02393559 0.0091894595

fc1.0.weight f4 [8, 320]
000000 9d c4 1f be e5 fd 37 be 8d 9f 3d be 61 e0 35 3d
       -0.15602346 -0.17967947 -0.18517895 0.044403438
000010 66 70 46 bc 96 e2 ab bd 51 ae b2 3d de a7 1d 3e
       -0.012111759 -0.08392827 0.087246545 0.15396068
000020 77 e3 40 3e fe 12 a2 3d 63 6f cf 3d 72 a4 d4 3c
       0.18836771 0.07913779 0.10128667 0.02595732
000030 02 e3 b5 3d 76 20 fc 3a 23 34 2a 3c 14 1d be bd
       0.08881189 0.0019235748 0.010388407 -0.0928289
000040 02 51 12 bd 7e 29 0a bd 18 f0 1b be 1a 78 51 be
       -0.035721786 -0.033730976 -0.15228307 -0.20455971
000050 2f dc 36 be 54 bb 54 3d 1c 08 d8 bd 73 58 e6 3c
       -0.17857431 0.051936463 -0.10548422 0.028118348
000060 b6 4f a7 bd c4 ca 8a bc 65 4a 23 3d 42 83 9d 3d
       -0.081695005 -0.01694239 0.03986587 0.07691051
000070 69 3f f7 3d de 52 01 3e e0 ea 18 bd 54 58 c3 3c
       0.120726414 0.12629268 -0.03733337 0.02384583
000080 7d 16 15 3d 94 65 dd bd 1f c2 8c 39 dc 92 88 3d
       0.0363984 -0.1081039 0.00026847512 0.06668636
000090 cb 15 ab 3d b5 3a 15 bd a5 35 94 bd e4 8b 20 3e
       0.08353766 -0.03643294 -0.072367944 0.15678364
0000a0 e2 20 2b 3e 3f 16 d2 3d 4e 13 8a bd ac 8b 39 3d
       0.16711763 0.10258149 -0.06741963 0.045299217
0000b0 9c 0c 50 3c a1 cc 10 ba 22 6e 94 bd a3 5a 08 be
       0.012698319 -0.0005523656 -0.07247569 -0.13315825
0000c0 97 34 f1 bd c8 ac 0d 3e a0 86 10 3e c7 f6 29 3e
       -0.11777609 0.13835442 0.14113855 0.16598044
0000d0 7e ef d6 bc d1 02 35 3e 57 e0 3e 3e 72 4f 08 3d
       -0.026237246 0.17676856 0.18640266 0.03327889
0000e0 f8 75 9b bd eb 74 ac bc b1 2d 42 bd 00 fd 4e bd
       -0.0759086 -0.021051845 -0.047406856 -0.05053425
0000f0 39 5f 59 be 28 58 28 be 60 3b f5 bd dc 73 3a bd
       -0.21227731 -0.16439879 -0.119742155 -0.04552065
000100 c3 89 0d 3d b5 91 00 3e 39 62 5f 3b b1 bc 8a bd
       0.034555208 0.12555583 0.0034085645 -0.06774271
000110 05 a2 82 3e a7 a1 47 3e 2f d2 38 3d 96 a7 92 be
       0.25514236 0.19495259 0.04512232 -0.28643483
000120 48 e4 4b 3e ad 44 46 bd 93 f4 fe b9 f7 94 fd bd
       0.19911301 -0.048405338 -0.00048628877 -0.123819284
000130 df 11 19 be c9 56 67 bd 5c 82 a2 bd 7e ac ad 3d
       -0.14948224 -0.05647925 -0.0793502 0.08480166
000140 d4 7e 7d 3e 28 24 34 3e 37 36 1a be 75 bb c1 be
       0.24755412 0.17591918 -0.15059744 -0.3783833
000150 31 ac 32 3e 9c 8a c2 3d b0 db 21 3d a4 f5 f4 bd
       0.17448498 0.09499094 0.03951615 -0.11960915
000160 91 f6 11 bd 4e 6d ce bd 14 09 65 3c 73 45 01 3e
       -0.035635535 -0.10079442 0.013979215 0.12624149
000170 91 26 e5 3b fc b8 9d bd 70 86 34 bd de 98 67 3e
       0.006993123 -0.077012986 -0.044073522 0.22616908
000180 45 e7 02 bd ab 3e a2 bd 1c 0f 60 bd f6 f1 25 bd
       -0.031958837 -0.07922109 -0.05470191 -0.040513955
000190 30 3b aa 3c 27 0e 04 3e 6b b0 29 3d 27 98 98 3b
       0.020780176 0.12896024 0.04142801 0.00465681
0001a0 96 35 80 bd f4 71 03 3e a7 e3 66 3d ef 9e 1e 3d
       -0.06260221 0.12836438 0.05636945 0.03872579
0001b0 c3 6e 3f bd 71 14 bd bd da 71 c9 bc 36 c6 96 bd
       -0.04673649 -0.092324145 -0.024590421 -0.073620245
0001c0 a1 a7 70 3d 5a 37 f6 3d 62 cd 10 3b b3 ae 02 be
       0.058753613 0.12022276 0.0022095074 -0.12761955
0001d0 58 09 26 be 3c 56 77 bd 0b 99 ed bc 9c 05 e2 3d
       -0.16214502 -0.060384974 -0.02900364 0.11036226
0001e0 cc 4a 5d be 70 29 0d 3d 8b aa 9e 3d cb 48 82 3e
       -0.21610564 0.034463346 0.07747372 0.25446162
0001f0 9b d8 eb bc 5b 0e 93 3d 8b 76 9d 3d 21 0e 46 3e
       -0.028789809 0.071804725 0.07688626 0.19341327
000200 9b b5 7f bd dc 4f 7f 3d 3e c2 44 3d 18 d6 a6 bd
       -0.06242905 0.06233202 0.048036806 -0.08146304
000210 26 3b 9e bd d5 b2 2e be c3 3a ca bb 84 7b ef 3a
       -0.077261254 -0.17060407 -0.0061715557 0.0018271063
000220 95 0c 79 bd ab 1a 19 3d c2 66 0e bd 27 ec 02 3d
       -0.060803015 0.03737895 -0.034765966 0.031963494
000230 3c 8c 48 3d 01 79 fb 3d 76 9f fa 3c 8d 87 a6 bc
       0.048961863 0.12278939 0.030593615 -0.020328308
000240 5a fd 0c bd 30 20 84 3c 69 6a f3 3d be 2c 54 3d
       -0.034421302 0.01612863 0.118855305 0.051800482
000250 52 07 4a be 4b 0a ec bc 3c 18 b7 39 b1 45 04 bd
       -0.19729355 -0.028813502 0.00034922536 -0.032293025
000260 f4 d7 95 bd 66 9b 66 3d 52 0c 83 bc c2 fe 60 bd
       -0.073165804 0.056300543 -0.015997086 -0.054930456
000270 9c 20 ce bc 45 35 c4 3b aa 15 a6 3c f3 29 dd 3c
       -0.025162034 0.0059877955 0.020274002 0.026997542
000280 e2 ec 87 3e 4b 8f 38 3e a8 e5 0d bd f2 ec 86 bd
       0.26547915 0.18023412 -0.034642845 -0.065881625
000290 b0 96 5c 3e 1b cd 0d 3e 70 2a 0d 3d ca 0b 04 bc
       0.21541858 0.13847773 0.0344643 -0.008059451
0002a0 c7 74 17 be 2a d4 02 be 72 56 64 bd da d1 c1 ba
       -0.14790641 -0.12776247 -0.055746503 -0.0014787272
0002b0 16 5f 51 bd 77 1c d8 bd ec ca a2 bc 29 43 f1 3d
       -0.05111607 -0.10552304 -0.019872151 0.11780388
0002c0 34 eb 2e 3e ec a6 97 3d 82 fe 1b bd e8 c0 35 be
       0.1708191 0.07404885 -0.038084514 -0.17749369
0002d0 2e 6a 2b bd c4 d8 2c bd 9a 7d 6b ba fc 72 1f be
       -0.041849308 -0.04219891 -0.00089832547 -0.15571207
0002e0 08 37 c9 bd 4d ef 49 bd cb dd cf 3d 55 35 74 3e
       -0.098249495 -0.04930048 0.101497255 0.2384847
0002f0 2e 60 ac 3d 12 ca cd bc 22 ee ac bd b3 16 73 3e
       0.08416782 -0.025120769 -0.08443858 0.23739128
000300 fb 15 29 bd f6 47 1a 3e e6 7e 50 3e 73 86 44 3e
       -0.041280728 0.15066513 0.20360908 0.19191913
000310 86 f3 ab bd 05 49 19 be 4c b4 94 3c 9d 5d 4a bc
       -0.08396058 -0.14969261 0.018152378 -0.012351421
000320 e1 32 22 be a8 3a 4a bd 5e ac a4 bd e0 9f c1 bd
       -0.15839721 -0.049372345 -0.08040689 -0.09454322
000330 ba 67 08 3d 69 8a d1 3d 84 72 96 3d 38 f4 27 bc
       0.033302046 0.10231478 0.07346061 -0.010251097
000340 ab 44 75 bb be c8 0b 3e 10 6f bc 3d 47 e3 ca 3d
       -0.0037424963 0.13650796 0.09200871 0.09906631
000350 32 94 d2 3d ca db a1 3d f8 f9 58 bc 91 16 14 be
       0.10282172 0.079032496 -0.013243191 -0.14461733
000360 48 a8 8a 3b c5 28 4d bb 17 c8 0c be cb 79 9b bd
       0.0042314865 -0.0031304818 -0.13748203 -0.075915895
000370 44 b3 be bd fc 41 cf bd 47 ad 15 bd bf 30 03 3d
       -0.09311536 -0.101200074 -0.036542203 0.03202891
000380 41 90 c2 3d 81 c8 aa 3d a5 02 87 bd ce 0e 97 bd
       0.095001705 0.08339024 -0.06592301 -0.07375871
000390 e1 22 79 3e fd be d6 3d b8 b1 06 be ee 34 08 be
       0.24329711 0.10485647 -0.13153732 -0.13301441
0003a0 85 9f 08 3e 34 e3 9c 3b a7 ec 86 bd fc 70 d6 3d
       0.13342102 0.004787827 -0.065881066 0.10470769
0003b0 35 c8 58 be ad 8c d5 bd 1e c6 32 bd 80 70 34 3e
       -0.21170123 -0.104272224 -0.04364597 0.1762104
0003c0 8e 34 ae 3d 5f e8 ce bd d4 3d 4c bd a7 7a 09 be
       0.08506118 -0.10102915 -0.04986365 -0.13425694
0003d0 ff 3e 32 3e 57 28 f7 bc 1e ac 37 be 86 67 4e bd
       0.17406844 -0.030170603 -0.17936751 -0.050391696
0003e0 63 90 3c 3e dd 81 72 3e 19 ac 0b 3d fa 93 e0 3d
       0.18414454 0.23682351 0.034099672 0.10965724
0003f0 f7 38 de bd 65 af ce bb b9 fd f9 3c b3 60 f5 3d
       -0.10850709 -0.0063075298 0.030516492 0.119813345

fc1.1.weight f4 [50, 8]
000000 23 d4 24 be c6 18 26 be b0 84 81 3d 45 f8 73 be
       -0.16096549 -0.16220388 0.06324136 -0.23825176
000010 e0 56 c1 3d 27 2f 0a 3e d8 3d 57 be 9e d6 a1 3c
       0.09440398 0.1349455 -0.21019685 0.019755658
000020 cb 88 c6 bb ab b5 af 3e 3e 07 ed 3c 5f 2f 18 be
       -0.0060587875 0.3431829 0.028934117 -0.1486182
000030 a0 65 61 3e 96 81 20 3c 21 16 a5 bd b7 1f 13 3e
       0.22011423 0.009796521 -0.080608614 0.14367567
000040 9e 83 1b 3e 91 d8 53 be ef 21 49 3e cf b9 06 be
       0.15186927 -0.20688082 0.19641851 -0.13156818
000050 ba f4 47 bd b0 88 8f be 6c c7 f3 bd d4 6c 7b bc
       -0.048817374 -0.28033972 -0.11903271 -0.015345771
000060 86 90 05 3e 62 c2 22 be e8 3d 94 3d 99 df d0 3d
       0.13043413 -0.15894464 0.0723837 0.10198898
000070 b2 1d 5b 3e d2 e5 41 3c 14 4c 85 3e 80 e8 91 bc
       0.21398047 0.011834579 0.26034606 -0.01781106
000080 1d d9 2c bd 18 ab 8a 3e ac 28 8c be 66 38 24 3d
       -0.042199243 0.2708366 -0.2737478 0.04009285
000090 bf 0e 10 3c f4 2d 83 3d 82 f3 b8 bd fb ad a0 bc
       0.008792578 0.06405249 -0.090308204 -0.01961421
0000a0 a6 3f 52 3e 0b 65 8d bd 0b 41 11 be 59 24 7c be
       0.20532092 -0.06904038 -0.14184968 -0.2462324
0000b0 7a 21 2b be 03 cb c4 bd 41 83 ab 3d 43 61 96 bd
       -0.16711989 -0.09609034 0.08374644 -0.0734277
0000c0 2e 0b 2b be 6f df 3b 3e d7 f3 7d 3e ae 48 21 3d
       -0.16703483 0.18346952 0.24800049 0.039375953
0000d0 28 3f 89 bd cb 2e 3c be 27 8e da 3d fc 8f 58 be
       -0.06701499 -0.18377225 0.10671645 -0.21148676
0000e0 79 24 c6 bc fc cd f9 bd 20 b1 d6 3d fb 5d 23 3e
       -0.024187313 -0.121974915 0.10483003 0.1595382
0000f0 a6 38 37 3e e1 1e b8 bd 0c f8 55 be 03 7b 9f 3e
       0.17892703 -0.08990265 -0.20895404 0.31148538
000100 8d 7e 01 3e 29 8d 7c 3e e4 29 b4 3d 58 a7 09 be
       0.12645932 0.24663223 0.087970525 -0.13442743
000110 a2 8c 00 bd 6d 0c 0f 3d 09 c4 89 be 88 62 45 3d
       -0.031384118 0.03492396 -0.26907375 0.04818967
000120 0e 49 81 3e 31 a2 68 3d 47 fc 78 3d 8a 0e b9 3d
       0.2525105 0.056795303 0.060787465 0.09035976
000130 96 95 3a be ce de 09 3e 32 dc 5f bc cf 50 a1 3d
       -0.18221125 0.134639 -0.0136633385 0.07876741
000140 16 67 be bd 6c c9 81 3e f2 6f b1 3e d9 59 90 3d
       -0.09297006 0.25348985 0.3465572 0.07048387
000150 89 1f e3 3d a5 4b b4 3c f1 8d 32 3e 8e ae 14 bc
       0.11089999 0.022008726 0.17436959 -0.00907482
000160 57 40 a4 bd 71 c2 2f bb c5 39 5a 3e f7 76 1a be
       -0.08020084 -0.0026818777 0.213111 -0.15084444
000170 6f 18 2a be c6 10 73 be 3b e2 49 3e bf 40 27 3e
       -0.16610883 -0.23736867 0.19715206 0.16333292
000180 76 d8 45 bd 82 41 4e bd 77 a5 29 bd ba 2a a1 bd
       -0.048302136 -0.050355442 -0.041417565 -0.078694776
000190 d2 8c 8f be fe e0 b6 bc 3b 58 bd 3e ae 34 7d 3e
       -0.28037125 -0.022324082 0.36981377 0.24727127
0001a0 d5 cf 7c be 46 e4 d7 3c 83 98 5f bd b9 77 89 3e
       -0.24688657 0.026353966 -0.054588806 0.26849154
0001b0 17 b8 08 be 82 2c 43 3d 89 9c 36 3e bb 0e 47 bd
       -0.13351475 0.047649868 0.17833151 -0.048598032
0001c0 32 a9 51 be ca 79 de 3c 77 fa 68 be f3 34 d8 bd
       -0.20474699 0.027157683 -0.22751795 -0.10556974
0001d0 49 c4 80 be dc 42 09 3e 51 5c 23 bd 93 bd 51 bd
       -0.25149754 0.13404411 -0.03988296 -0.051206183
0001e0 a8 ab 04 be 36 68 18 be aa 96 27 be db c3 81 bd
       -0.12956107 -0.14883503 -0.16366068 -0.063361846
0001f0 59 36 64 3e fa 53 cd 3c c4 6c 0e 3e d9 48 5e 3d
       0.22286357 0.025064457 0.13908678 0.05426869
000200 fc 6a 3f be d5 49 32 3e c6 09 76 be a5 40 c9 bc
       -0.18693155 0.17410977 -0.24027166 -0.024566958
000210 c0 d7 58 bd 6b a4 6d 3d 28 3c 2e 3d 13 54 eb bd
       -0.05294013 0.05801813 0.04253784 -0.11490645
000220 8f 4c 87 3e 28 9c 1a be f3 e9 fa 3d 61 d8 76 3d
       0.26425597 -0.15098631 0.122516535 0.06026495
000230 be a9 31 3e c0 19 23 3d 25 92 c9 3d c7 a2 85 bd
       0.17349908 0.03981948 0.09842328 -0.06525188
000240 bd 83 74 bd 36 f1 c6 bd 24 ab 95 3e 21 5b 07 be
       -0.059695948 -0.09713976 0.29232132 -0.13218357
000250 d9 db f5 3d 0d 55 6a bd 10 9c a4 3e 9c 7e 85 3e
       0.12004823 -0.057210017 0.32150316 0.26073158
000260 6a 15 12 be 3f fc c0 3d ef a0 f4 3c da df c3 be
       -0.14265981 0.09423112 0.029861895 -0.38256723
000270 76 0d 84 3c c8 2e fa 3d d5 34 91 3e 1e aa b9 bd
       0.0161197 0.12215954 0.2836062 -0.090656504
000280 08 19 98 bd 0c 1c 36 3e 7d 5b 37 3d c4 72 aa be
       -0.07426649 0.17784137 0.044764984 -0.33290684
000290 af bd f4 3c 5f 43 b9 3d fa 7b fa 3d 29 04 91 3e
       0.029875604 0.09046053 0.12230678 0.28323486
0002a0 1f 67 b1 bc 4f dc ff bc fc d0 a2 3e 7c c4 1e be
       -0.021655617 -0.031232981 0.31800067 -0.1550464
0002b0 c2 6e 85 be 47 c2 c2 bc 36 62 bd bd e8 81 10 be
       -0.26061064 -0.02377428 -0.09247248 -0.14112055
0002c0 ab 98 2f be 2c 93 e2 bd 83 9b 89 bd a8 2b 45 be
       -0.17148082 -0.11063227 -0.06719115 -0.19254935
0002d0 86 aa e4 3d 0e 3f 2b be de 8d de 3d 62 05 04 3e
       0.11165337 -0.16723272 0.10866903 0.12892678
0002e0 29 0c 33 3e 8e 42 2b 3d 85 1f 73 3e 0b f8 ac 3d
       0.17485107 0.04181152 0.23742492 0.08445748
0002f0 02 58 f2 3c c5 f4 72 3e eb 64 cd bd ee 85 e9 bd
       0.029582981 0.23726185 -0.10029014 -0.11402498
000300 1f 17 f1 bd 4d 6c 6e be 7b a7 8d bb 23 af 42 3e
       -0.11771988 -0.23283501 -0.0043229437 0.19012122
000310 71 aa 3e bd e4 58 13 3e 46 0f 21 be b2 17 21 3d
       -0.046549264 0.14389378 -0.15728483 0.03932924
000320 73 23 48 bd 79 a1 c8 bc 50 9e 0e 3e 76 5e c5 3d
       -0.048861932 -0.024491059 0.13927579 0.096371576
000330 64 f5 7d 3d 00 ec 80 3e 7d 4d 4e 3e 5d 34 05 3e
       0.0620016 0.25180054 0.20146747 0.13008256
000340 fd 7a 02 be 9b 74 10 3e d6 3c c3 3d 25 85 4d 3d
       -0.12742229 0.14106981 0.09533088 0.050175805
000350 3d b5 24 3d 4b 0a 22 3e f6 aa 23 3e b2 b0 2f be
       0.040211905 0.15824239 0.15983185 -0.17157248
000360 f7 a9 32 be 39 4e 2f be 3e 45 70 3d fe 04 85 3e
       -0.17447649 -0.17119683 0.058659784 0.2598037
000370 75 38 90 3e 59 98 90 3d d8 66 eb 3d e8 26 b4 bd
       0.28168073 0.07060308 0.11494225 -0.08796483
000380 20 51 a9 bb b4 89 f3 bd d3 be 5a bc 94 35 88 bd
       -0.0051671416 -0.11891499 -0.01335116 -0.06650844
000390 fb 90 d0 be 39 e4 4f 3d d2 b0 69 3e 19 8b e1 bd
       -0.4073561 0.05075476 0.22821358 -0.11012859
0003a0 9f 73 b7 bd c5 0c c5 be 18 82 83 bd 67 32 8c 3d
       -0.089576 -0.38486305 -0.06421298 0.06845551
0003b0 87 13 04 be 89 b7 3a 3d da 89 90 3c ca fc 03 be
       -0.12898074 0.04558519 0.017643858 -0.128894
0003c0 c4 73 7e 3e 74 46 7b bd 63 ef b5 bd 8f fd 89 bd
       0.24848849 -0.061346486 -0.0888355 -0.067378156
0003d0 ca 25 79 3e e6 39 c1 3b 17 7a 08 3d 5b 65 d0 bd
       0.24330822 0.0058967946 0.03331956 -0.10175582
0003e0 38 58 29 be da 16 b9 bd f6 aa aa be 54 15 b9 bd
       -0.16537559 -0.09037562 -0.33333558 -0.09037271
0003f0 cb 8f 55 3d 59 4a e5 bd fe 1e 0d 3e 99 b2 f4 bd
       0.052139085 -0.11195821 0.13781354 -0.11948127

fc1.1.bias f4 [50]
000000 3f 03 9e 3d 8a f0 5f 3d 29 42 59 bb 14 9f a4 bc
       0.07715463 0.054672755 -0.0033151007 -0.020095386
000010 da 7d 26 bb 3b ad 8a b9 3c ad 56 3d 27 de b6 3c
       -0.0025404603 -0.00026450478 0.052411303 0.022322727
000020 b1 d6 1c bc 7d 64 93 ba f6 50 86 3d 24 2b 34 bd
       -0.009572671 -0.0011245158 0.06558411 -0.043986455
000030 76 e8 68 3d 86 99 32 3b 1b 52 a4 3d 5f f4 68 bd
       0.056862317 0.0027252152 0.08023473 -0.056873675
000040 31 60 f6 bc ec 96 3f 3d 22 8c 87 3d 9e da d3 3d
       -0.030075165 0.04677479 0.06618525 0.10344432
000050 7c b9 a8 3d 40 25 97 bc b3 c1 b4 bb ca 75 fe 3b
       0.08238503 -0.01845038 -0.005516255 0.0077655064
000060 a1 17 13 bd c7 ab 59 3b f0 99 98 3a 76 58 e0 3d
       -0.035911206 0.003321396 0.0011642557 0.109543726
000070 3a b6 29 3c a6 03 30 bd f2 e3 d6 bc b2 34 93 3d
       0.010358388 -0.04297223 -0.02623174 0.07187785
000080 0a 0c e4 bc dc ba 1c bd 5b 04 79 3d 54 cb 73 3d
       -0.027837772 -0.03826414 0.06079517 0.05952008
000090 36 48 8d bc 0a 8c b8 3d 71 ad 41 3d 92 8a b7 bd
       -0.017246347 0.09011085 0.047284547 -0.08961977
0000a0 d7 94 4c 3d a2 fa f9 bc 59 d2 94 bd c9 3c 2c bb
       0.049946632 -0.030515019 -0.07266683 -0.0026281348
0000b0 68 89 7a 3d ff 7d e1 3c b7 40 9e 3d e5 68 d6 3a
       0.061166197 0.0275259 0.07727187 0.0016358165
0000c0 a5 6c fd bc 71 8e fb 3b
       -0.030935595 0.0076768924

fc2.0.weight f4 [8, 50]
000000 1c df b0 3e d2 6a 54 be ff 70 c8 3e 1a 04 47 3e
       0.3454522 -0.20743874 0.3914871 0.19435158
000010 3a 80 b5 be 25 68 c2 3e e9 34 ae be b4 62 1f 3e
       -0.35449392 0.3797008 -0.34024742 0.15564996
000020 8e c9 ab 3d 69 5c 67 3e 14 70 8d be ca 19 af bd
       0.08388053 0.22593845 -0.2762457 -0.08549841
000030 16 1a e3 3d a3 c1 cf be 07 27 90 bd 74 cd ff bd
       0.1108896 -0.4057742 -0.07038694 -0.12490359
000040 14 4e 97 be a7 0a c2 3e f6 40 43 3e 9e 44 bd 3d
       -0.29551756 0.37898752 0.1906775 0.09241603
000050 3d 62 27 3e 78 4b 40 3e 0c e2 b2 bd 3d 37 7e 3e
       0.16346069 0.18778789 -0.08734521 0.24825759
000060 47 9d 03 3e 63 fa 16 bd a0 9c 60 be 13 a3 35 be
       0.12852965 -0.03685988 -0.21934748 -0.17737989
000070 32 a8 58 3e 24 da 60 3e 2d 38 9d 3e 18 6a 84 be
       0.21157911 0.21958214 0.3070692 -0.25862193
000080 87 8f 99 3c 94 99 93 be e5 4a a2 be 50 64 52 be
       0.018745197 -0.28828108 -0.31697765 -0.20546079
000090 e8 a4 f9 3e 7f b8 00 3f fa 83 a6 be 30 df 6d 3e
       0.48758626 0.5028152 -0.32522565 0.2322967
0000a0 72 61 24 3d b8 7d 04 be 0b 6f 7e be b9 66 27 3e
       0.040131994 -0.12938583 -0.24847047 0.1634778
0000b0 a5 ee 3e 3e e1 2f 49 3d 73 20 82 be d6 45 13 be
       0.18645723 0.049117927 -0.25415382 -0.14382109
0000c0 9d 1b d9 bd fb df 5e be 8e 67 33 be 9e c4 a1 3e
       -0.1060097 -0.2176513 -0.17519972 0.3159532
0000d0 eb e1 4f be 82 76 82 3e af 01 bc 3d cf 66 07 be
       -0.20301025 0.2548104 0.091800086 -0.13222812
0000e0 2e ca 03 be 5b a9 f4 bb 8f e5 55 3e 6a b9 1a 3e
       -0.12870094 -0.007466478 0.20888351 0.15109792
0000f0 46 1e be 3e e6 f1 a3 be 50 ab 3b bd 13 1d 0c be
       0.37132472 -0.3202049 -0.045817673 -0.13682966
000100 dd ac 95 be 5e 9a 13 be a7 f2 1c be 83 79 98 3e
       -0.29233447 -0.14414355 -0.1532694 0.29780206
000110 d8 6f a8 bc 82 be b5 bc 22 18 af 3d 55 17 3f be
       -0.020561144 -0.022185568 0.08549525 -0.18661244
000120 35 6d 94 be e7 8e c6 3e 9a a8 5a be 71 a3 8b 3e
       -0.28989568 0.387809 -0.21353379 0.27273133
000130 6d 49 59 3e 32 44 1a 3d 74 d7 38 be db 9f ab be
       0.21219416 0.037662692 -0.18050939 -0.33520398
000140 d8 f0 84 3e dd 1b 95 be 84 6e 99 be ad fb 88 be
       0.25965 -0.2912282 -0.2996713 -0.26754513
000150 0f db 60 3e d4 d4 dc 3d 52 0c c9 3d 6e e3 01 3e
       0.21958564 0.10782781 0.09816803 0.12684414
000160 80 79 1c 3e 12 0e a9 be bd 9d 82 3e de 4a bc 3c
       0.15280724 -0.33018547 0.2551097 0.022984918
000170 a0 52 12 3a 61 6e 52 3e 6f 4f aa be ff 9d 12 3e
       0.000558177 0.20549919 -0.33263728 0.14318083
000180 9b c1 ef 3d ce 7f 11 bd e8 a0 a8 3d 19 bc 43 bd
       0.11706849 -0.035522275 0.082338154 -0.047786806
000190 12 e3 c1 be 12 7b 53 be 39 02 b6 bd fd c3 6c 3d
       -0.37868553 -0.20652416 -0.08887143 0.057804096
0001a0 1a 48 1c 3e b8 7a 92 3e 26 0e 49 be e4 f5 21 be
       0.1526188 0.28609252 -0.19634303 -0.15816456
0001b0 77 a8 a0 bd 16 f4 47 3e 1d 5b 51 be d6 46 80 be
       -0.07844632 0.19526705 -0.20444913 -0.25054044
0001c0 c5 60 3d 3d 8b b9 32 3e b5 81 43 3e 1f ad 75 bd
       0.046234865 0.17453592 0.19092448 -0.059979554
0001d0 8b 67 4c 3e 44 5a fc 3c 52 ac b6 be ea e6 e1 be
       0.19961374 0.03080476 -0.35678345 -0.44121486
0001e0 70 1d af be e9 18 83 be 7a 28 3d be d0 a0 1b bd
       -0.34202147 -0.25604942 -0.18472472 -0.03799516
0001f0 1b 2f 24 3e 0e 30 54 bd a8 b3 63 be 20 20 f9 bd
       0.16033594 -0.05180364 -0.22236502 -0.121643305
000200 f1 b2 56 3e 41 ee 65 3e 15 85 da 3d 11 37 68 3e
       0.20966698 0.22454168 0.10669915 0.22677256
000210 99 8f f0 bd dd d5 6f be fb 5a ac bd de 37 c9 be
       -0.11746139 -0.23421426 -0.08415791 -0.39300436
000220 cc e1 9b 3d 41 f9 f6 3c 84 62 c9 bd 20 bd a5 bd
       0.07611427 0.03014815 -0.098332435 -0.08092713
000230 89 40 9d 3e 29 36 00 3e 51 c5 0d 3e 41 81 9f bd
       0.307133 0.1252066 0.13844801 -0.07788325
000240 a2 fb 80 be 08 37 2b 3e 8a 1a 98 3d 8d e2 8a 3d
       -0.2519198 0.16720212 0.07426937 0.067814924
000250 39 95 b4 3d e3 ea 97 3e 55 4c 66 3e 7b 2d 11 3d
       0.088175245 0.29671392 0.22490056 0.035443764
000260 8d 20 77 be 1b 11 12 3e a2 0d a0 3d 92 88 ae bd
       -0.24133511 0.14264338 0.078151 -0.085221425
000270 6d 22 5b be b6 fd 00 3e e9 2c 83 be 59 f6 6b be
       -0.21399851 0.12596783 -0.256202 -0.23043193
000280 21 29 26 be bc e6 7e be be 0e 40 be 3f 31 2d 3c
       -0.16226627 -0.24892706 -0.18755624 0.010570823
000290 53 66 5c bd f7 32 ba 3e 11 4a 13 3e 4e 26 7d 3d
       -0.05380852 0.36367008 0.14383723 0.06180411
0002a0 28 4e 31 3d b2 c4 9e 3d 93 a6 42 bd 13 b7 ad be
       0.043287426 0.077523604 -0.04752214 -0.33928737
0002b0 6e 8c 23 3e 12 36 0d bd 48 2c 82 3d 4a df 53 3d
       0.15971538 -0.034475394 0.06356102 0.051726617
0002c0 94 5c 53 3d 99 60 b7 3e d2 95 61 be 32 2f 8c 3d
       0.05160196 0.35815886 -0.22029808 0.06844939
0002d0 8e 16 2b 3e d1 bf 54 3e b9 00 b0 3d f0 20 ba bd
       0.16707823 0.20776297 0.08593888 -0.090883136
0002e0 23 c1 89 be 7b 9e d2 3c 08 be ae 3d c6 13 cb 3d
       -0.26905164 0.025710335 0.08532339 0.09915881
0002f0 46 c5 79 3e dd 33 c2 bd bd 31 91 bc 24 2a 9c be
       0.2439166 -0.094825484 -0.017723912 -0.305009
000300 4a 1f 6d be 7e 5b 92 3c cc 0d 7e bd 5e b9 1c 3d
       -0.23156467 0.017865892 -0.062024876 0.038262717
000310 c0 86 79 be 7e d3 9b be 20 dc 75 3e 76 45 2c 3e
       -0.2436781 -0.30434793 0.24009752 0.16823372
000320 a5 32 0e bb 7f 68 19 be ce 89 75 be 57 f4 e8 bd
       -0.0021697667 -0.14981268 -0.2397835 -0.11374729
000330 82 a8 cd bd 04 ca 11 be 95 f4 c8 bd 19 7f 97 bd
       -0.10041906 -0.14237219 -0.09812275 -0.07397289
000340 b8 6a 9f bd 3f ab bf 3d 25 73 98 3c 8c fd 0a be
       -0.07784027 0.093588345 0.018609593 -0.13573283
000350 2d 1c 3b 3e ab 50 31 3e eb d3 f3 3d a7 2d ac bd
       0.18272467 0.17315929 0.119056545 -0.08407145
000360 38 b1 0e 3d 9c cd c1 bd 54 b9 e0 3b 39 cd 08 3e
       0.034836978 -0.09463045 0.0068580303 0.13359536
000370 75 27 8f bb 58 35 f6 bb c8 df 95 be 14 6d 92 bc
       -0.0043687173 -0.0075136833 -0.29272294 -0.017874278
000380 ce eb 63 3e f5 3a 4f 3e 4f fd e1 3d 4b 9f 7b 3d
       0.22257921 0.20237334 0.11034643 0.06143121
000390 8f e4 27 3e 30 d4 09 3e 61 12 25 be 17 8d 46 be
       0.16395782 0.1345985 -0.16120292 -0.19389759
0003a0 19 9f 3c bd 08 98 e8 3d 7f 2c 48 be 19 ba a1 3b
       -0.046050165 0.11357123 -0.19548224 0.0049355146
0003b0 0f e7 fe bd b4 7e 08 be 32 a3 1b 3e 8e 3c 05 bc
       -0.12446415 -0.13329583 0.15198973 -0.008132113
0003c0 74 3d 6b 3e a4 93 d1 bd f0 1c 0b be 3b 9d 9c 3e
       0.22972661 -0.10233238 -0.13585258 0.30588707
0003d0 0f 62 4e 3d 5c d2 39 be 05 83 05 be 36 15 15 be
       0.050386485 -0.18146652 -0.13038261 -0.14558873
0003e0 00 26 68 be f6 32 77 be 38 bb 6d 3c 8b b5 39 bd
       -0.22670746 -0.24140534 0.014509968 -0.04533915
0003f0 44 43 02 3e a6 2b 02 3e 33 f1 eb bd cc 0b 68 be
       0.12720972 0.12711963 -0.115206145 -0.2266075

fc2.1.weight f4 [10, 8]
000000 8a 21 a5 be 22 dc eb bd a2 74 22 3f 6d aa 9a be
       -0.3225215 -0.115165964 0.6345922 -0.3020815
000010 61 d1 ad 3e 49 b7 26 be 5b be b1 3e e6 ea 96 be
       0.33948806 -0.16280855 0.34715542 -0.29476088
000020 0d 00 6d 3d 5a b9 39 3f 19 51 8c be 79 ca bb 3e
       0.057861377 0.7254845 -0.27405623 0.36677912
000030 63 9c d4 3e 79 f3 c8 3c 6f f4 d2 3e 75 f9 f4 bd
       0.41525564 0.02453016 0.41202113 -0.11961643
000040 a9 f5 f3 3d 79 b6 b2 3e c6 eb 9c 3e 31 8c 89 be
       0.1191209 0.3490484 0.3064863 -0.2686477
000050 0a 65 fe be 63 cd 81 3e 90 92 23 bd 4b 08 c7 be
       -0.49686462 0.2535201 -0.039934695 -0.38873515
000060 71 c3 8e 3e 13 52 53 be 26 53 0d 3e 0e 05 dc 3e
       0.27883485 -0.20636778 0.1380125 0.42972606
000070 8f d9 a8 be f1 70 fc 3e 62 6a 1a 3e 2b a2 52 3e
       -0.32978484 0.49304917 0.15079644 0.20569675
000080 44 a0 15 be dc d0 3c bd a5 b9 3e bf fe 63 ea be
       -0.14611918 -0.04609762 -0.7450202 -0.45779413
000090 ea b7 a0 bd 6e 46 8a 3e 31 56 93 3d b9 15 a6 be
       -0.07847579 0.2700686 0.07194174 -0.32438448
0000a0 c0 7f a3 be 8c 77 bd be fb 88 51 bd 46 4a 0d 3f
       -0.31933403 -0.3700527 -0.051156025 0.5519146
0000b0 54 c9 82 3e fa bf 83 3e 1f 7f a9 be 88 ff 11 bf
       0.25544226 0.25732404 -0.33104798 -0.57030535
0000c0 bf 02 5e bf eb b5 d1 3d d4 f2 6f bb 21 f5 b1 bd
       -0.8672294 0.10239776 -0.0036613243 -0.08689333
0000d0 21 c0 8a 3d 12 e4 06 3e c3 ba 95 be cf c6 f2 3e
       0.06774927 0.1317294 -0.2924405 0.47417304
0000e0 83 b0 1f 3f 4b da e6 3c f7 f7 2b 3d 56 13 7b be
       0.6237871 0.028180262 0.041984525 -0.24519095
0000f0 85 54 04 3f df cb 24 3e 75 05 13 bf 67 95 e3 3b
       0.51691467 0.16093396 -0.574302 0.0069453004
000100 b8 a8 a8 bb eb 8f b9 3c 03 5a bb bd 5a af 82 3e
       -0.005147066 0.022651633 -0.09148028 0.25524408
000110 9c 65 90 be 3d e1 3f bf 3a 63 ac be 98 c7 2c be
       -0.28202522 -0.7495306 -0.33669454 -0.16873014
000120 6e 03 27 3e 57 61 1f bf 73 e4 93 be 7d c3 5f be
       0.16309902 -0.62257904 -0.2888523 -0.21851917
000130 64 1b c5 3d a5 73 85 be b2 1c a0 3e 07 5c 9c 3d
       0.09624365 -0.26064792 0.31271893 0.0763474

fc2.1.bias f4 [10]
000000 54 af 25 3e 3f 00 83 3e 21 00 14 be 31 11 79 be
       0.16180164 0.25586125 -0.14453174 -0.24322964
000010 2c f1 71 bd 22 54 a5 bd a9 aa 92 bd d6 10 55 bd
       -0.05906789 -0.08072688 -0.07161457 -0.05201801
000020 43 69 7b 3e 2e bd 76 3d
       0.24551873 0.06023901
