model.pth (torch, 178113 bytes, 12 tensors)

conv1.weight f4 [10, 1, 5, 5]
0.09776485 -0.09352294 -0.044648778 0.08874834 -0.19121328 0.11404212 -0.047265474 0.09551143
0.023909139 -0.026562048 0.051334076 0.005999054 0.070028946 -0.07904807 -0.014667226 -0.020453744
0.028260985 -0.000506414 0.17618059 0.0639747 -0.076452464 -0.120414145 -0.03148699 -0.0833808
-0.06102235 0.0037837853 0.11176289 0.10176376 -0.20204867 0.11909442 0.04692015 0.17979948
0.12310116 -0.18810463 -0.19476825 -0.10498245 0.16622488 -0.040745106 0.07949695 -0.09812391
0.19093877 -0.08898876 0.14556602 -0.0021680256 -0.1095888 0.10265332 -0.105317 0.05836696
-0.05982816 -0.024538428 -0.19102725 -0.09377021 0.10951831 -0.04882715 0.19886479 0.16158785
-0.007881643 -0.13233964 0.12059929 0.059778832 -0.12833126 0.13146466 0.12128598 0.1754436
-0.11553488 -0.03187267 -0.0018298917 0.030029783 -0.15305789 -0.14440845 0.10978287 -0.044651892
0.09785304 0.009745889 0.06469797 0.04137448 0.070792496 0.09711439 -0.18759944 0.09767172
-0.14167808 -0.15130503 0.010175681 -0.03763599 0.11420325 -0.11604374 -0.17849801 0.14200746
-0.03405394 0.1094982 0.064066425 -0.15076174 0.036597893 0.044310603 -0.13601233 -0.09496687
0.0667635 0.0324357 -0.08836622 -0.06289845 0.18273708 -0.040078815 0.108967066 0.084164165
-0.13026035 -0.17099395 0.18854845 0.0073780976 0.13578755 0.041426424 0.062461596 0.14563173
0.18666644 -0.13247752 0.026310803 0.1470743 0.14203438 0.12181218 -0.14434803 -0.14285837
-0.12203531 0.022806829 0.19680727 -0.12690234 0.10697406 -0.10896662 -0.18514001 -0.039011586
0.11948531 0.1908704 -0.12144275 0.047077697 0.17684388 0.13773236 0.12977509 0.14424331
0.12895769 0.054453004 -0.13336313 -0.16612412 -0.090262294 -0.021742199 -0.120058574 0.076522626
0.06471175 -0.04308017 0.08002424 0.0685051 0.1253271 0.13790508 -0.066547416 0.1963608
-0.02040398 -0.0046258126 -0.18886724 -0.1271849 -0.114812516 -0.08232151 0.14518547 -0.06486899
-0.1467556 0.080499575 0.067863666 0.13219127 -0.10305558 0.04690393 -0.06827023 -0.04045749
-0.15703191 -0.09071711 -0.05845714 0.08900462 0.03961742 0.05026833 0.19869414 0.18975069
0.1337234 0.0054935836 -0.13787553 0.15603554 -0.05275432 -0.016363738 -0.17216818 -0.038297083
-0.12803541 0.18278679 -0.17225823 -0.15560079 -0.005999507 -0.10861661 0.07228155 -0.07597738
-0.09289157 0.010724454 0.14284027 -0.13862625 0.095809355 0.12942572 0.19530681 -0.14144962
0.049536005 -0.14644752 0.17335135 -0.076460384 0.12033055 0.006943484 -0.014830055 -0.0059091263
0.032073565 0.09191662 0.030403338 0.0592229 -0.18200321 0.14228362 0.17004041 0.1617436
0.14380443 -0.14739765 -0.076970175 0.17329815 -0.15518302 0.17837703 -0.15926091 -0.14157006
0.09631981 -0.14587991 -0.048125867 0.14339264 0.15571663 0.1858702 -0.040798385 -0.15590613
0.19665402 -0.043689314 -0.08493272 0.049626034 -0.13892859 0.13196182 0.12443958 -0.16121487
-0.16224854 -0.015004779 0.08498263 -0.007185973 -0.10408561 0.0070511783 -0.18577358 -0.1405567
-0.1343197 0.16229934
00000000: f038 c83d f588 bfbd a3e1 36bd b1c1 b53d
00000010: 6acd 43be ea8e e93d 7199 41bd 7f9b c33d
00000020: 19dd c33c a798 d9bc ae43 523d b693 c43b
00000030: 566b 8f3d f4e3 a1bd ce4e 70bc 9c8e a7bc
00000040: 9583 e73c dec0 04ba af68 343e 2b05 833d
00000050: 1c93 9cbd b19b f6bd 81f8 00bd 8ec3 aabd
00000060: 92f2 79bd 62f9 773b f1e3 e43d 8569 d03d
00000070: d9e5 4ebe c6e7 f33d 582f 403d 5b1d 383e
00000080: 761c fc3d 809e 40be 5471 47be 0a01 d7bd
00000090: db36 2a3e 57e4 26bd 4ccf a23d 30f5 c8bd
000000a0: 7485 433e bd3f b6bd 420f 153e 6f15 0ebb
000000b0: 1870 e0bd e73b d23d 70b0 d7bd 3212 6f3d
000000c0: 5f0e 75bd d004 c9bc a69c 43be 990a c0bd
000000d0: 234b e03d fafe 47bd 36a3 4b3e 4977 253e
000000e0: 0222 01bc 0b84 07be c3fc f63d a6da 743d
000000f0: 4569 03be ac9e 063e c964 f83d 7da7 333e
00000100: 8d9d ecbd eb8c 02bd fad8 efba 0501 f63c
00000110: 35bb 1cbe cfdf 13be d7d5 e03d e7e4 36bd
00000120: 2d67 c83d 39ad 1f3c 5f80 843d 4978 293d
00000130: a8fb 903d e9e3 c63d 111a 40be 1c08 c83d
00000140: 0f14 11be b5ef 1abe e6b7 263c 3228 1abd
00000150: 65e3 e93d 57a8 edbd 2fc8 36be 676a 113e
00000160: 257c 0bbd 9840 e03d 4235 833d 4961 1abe
00000170: ace7 153d 097f 353d d146 0bbe fe7d c2bd
00000180: 4dbb 883d 4cdb 043d 59f9 b4bd e7d0 80bd
00000190: 6e1f 3b3e af29 24bd 202a df3d 435e ac3d
000001a0: f862 05be 0a19 2fbe d812 413e f8c3 f13b
000001b0: e40b 0b3e c1ae 293d bbd7 7f3d 7c20 153e
000001c0: 7d25 3f3e 30a8 07be c189 d73c a59a 163e
000001d0: 7671 113e aa78 f93d f8cf 13be 7749 12be
000001e0: a6ed f9bd 63d5 ba3c d887 493e b0f2 01be
000001f0: 3715 db3d e429 dfbd 5895 3dbe 9dca 1fbd
00000200: b7b4 f43d 8873 433e fab6 f8bd 8bd4 403d
00000210: 9016 353e b609 0d3e c3e3 043e 85b4 133e
00000220: 7c0d 043e 1d0a 5f3d 5890 08be 711c 2abe
00000230: 70db b8bd b21c b2bc 45e1 f5bd e5b7 9c3d
00000240: 9887 843d d574 30bd c0e3 a33d 674c 8c3d
00000250: bf55 003e fd36 0d3e 034a 88bd ce12 493e
00000260: 3f26 a7bc 2194 97bb 6a66 41be c23c 02be
00000270: d322 ebbd 2e98 a8bd 80ab 143e 08da 84bd
00000280: 1a47 16be f6dc a43d 1bfc 8a3d 265d 073e
00000290: ce0e d3bd 561e 403d 43d1 8bbd c1b6 25bd
000002a0: f9cc 20be e4c9 b9bd c170 6fbd 0e48 b63d
000002b0: e045 223d 2ae6 4d3d 7a76 4b3e 014e 423e
000002c0: c9ee 083e 8503 b43b 3e2f 0dbe c8c7 1f3e
000002d0: ea14 58bd 3f0d 86bc db4c 30be 67dd 1cbd
000002e0: b71b 03be 762c 3b3e 7664 30be d055 1fbe
000002f0: 8397 c4bb 6372 debd 5908 943d 079a 9bbd
00000300: ef3d bebd 9fb5 2f3c b844 123e 0af4 0dbe
00000310: b237 c43d 2d88 043e 82fe 473e 2bd8 10be
00000320: 44e6 4a3d 57f6 15be 0483 313e 4397 9cbd
00000330: dd6f f63d 2a86 e33b c2f9 72bc 58a1 c1bb
00000340: 925f 033d c83e bc3d 6c10 f93c b693 723d
00000350: 0d5f 3abe ccb2 113e 131f 2e3e 1da0 253e
00000360: 7841 133e 69ef 16be 8aa2 9dbd 1275 313e
00000370: 4ce8 1ebe 78a8 363e 4b15 23be bef7 10be
00000380: 5243 c53d 8b61 15be a11f 45bd 85d5 123e
00000390: 2e74 1f3e c254 3e3e 351c 27bd dba5 1fbe
000003a0: ac5f 493e 91f3 32bd 35f1 adbd ab44 4b3d
000003b0: 4c43 0ebe 0021 073e 2eda fe3d 8315 25be
000003c0: 7b24 26be 9bd6 75bc 600b ae3d 5078 ebbb
000003d0: d62a d5bd 920d e73b 6e3b 3ebe 18ee 0fbe
000003e0: 1a8b 09be cc31 263e

conv1.bias f4 [10]
0.1774087 -0.07112653 0.008655445 0.08883334 0.021893397 -0.095769346 0.11449051 0.1208755
-0.0113320295 -0.025795281
00000000: a0aa 353e c9aa 91bd 91cf 0d3c 41ee b53d
00000010: c859 b33c b822 c4bd 007a ea3d 938d f73d
00000020: faa9 39bc a050 d3bc

conv2.weight f4 [20, 10, 5, 5]
0.057055045 0.054904368 -0.034814194 0.06381466 0.017301999 -0.042774003 0.03361795 -0.047191508
0.060971323 -0.03760102 0.018416975 0.020288995 0.016294956 0.054069437 -0.02477213 -0.026487857
-0.054444388 -0.0026475918 -0.029706934 0.0021735446 -0.011642583 0.02220909 0.055649765 0.019419506
-0.019039908 -0.03331312 -0.057517335 0.05318195 -0.008664937 0.016441084 0.0005411527 -0.041637518
0.03567435 0.03889125 0.006161908 -0.036211792 -0.026222602 0.0010145699 -0.03576769 -0.034242444
-0.0074819904 -0.016557975 0.014405853 -0.018892951 -0.008743361 -0.022251103 -0.05640748 0.051934525
0.008091996 0.055789277 -0.010759315 -0.0149588445 -0.056520868 -0.020586303 0.04384199 -0.061039023
-0.019019354 0.04273338 0.037836224 0.023251204 -0.009091869 -0.00043353255 -0.008706489 -0.022198837
0.026515577 -0.017589366 -0.03344886 0.013293373 -0.046462577 -0.013207896 0.032482013 0.022143815
0.052688237 -0.043649185 0.0013462027 -0.017368821 -0.033986337 -0.033866376 0.015848916 0.0059508355
-0.031825375 -0.04334614 -0.051411554 0.061920706 -0.0110510755 -0.013804868 -0.022167807 -0.031809326
-0.05758221 -0.036297843 0.03870469 0.013956839 -0.021867346 -0.023331748 0.04112132 0.046414584
0.06132364 0.01917745 0.030845037 -0.0050582453 -0.040063277 -0.064681396 0.04092872 -0.0020772358
0.031796955 0.0017413893 -0.05859424 -0.027427686 0.023423543 -0.008673712 -0.05785616 0.026622508
0.00513286 -0.019105844 0.026971806 0.01749219 -0.020202978 0.05513222 0.029634146 0.007933177
-0.010345624 -0.054012705 0.045118734 -0.018962167 -0.04015925 0.039923277 0.024750477 0.020394826
-0.008297545 -0.01627901 0.012823236 0.05300151 0.013984183 -0.027948854 0.06295219 0.0034127627
0.052859973 0.01899965 0.058233462 0.03618822 -0.028091313 0.047061164 -2.8851187e-05 -0.050257623
-0.011589974 -0.058281202 -0.03435843 -0.04535774 0.04460528 -0.011036492 -0.009006136 0.031297166
0.02684635 -0.041633684 0.023750115 0.029436689 -0.050240163 0.05505461 -0.038322564 -0.024908843
-0.051814046 0.057020877 0.011147168 0.053245563 0.0045151426 0.03457782 -0.01998029 -0.04959772
0.011655031 -0.0039699567 -0.0054914425 -0.030146329 0.0016968576 0.019422922 0.023629054 -0.05016043
0.03134684 0.006110063 0.044331774 0.047074374 -0.04803087 0.063153386 -0.06263304 0.037151355
0.006411794 0.029861897 -0.03393308 0.03920933 -0.029317806 -0.054799862 0.022422174 0.037984267
0.06727727 -0.0041690688 0.062989704 0.042799123 -0.028913122 -0.047574 0.034240667 -0.03454379
0.02734193 -0.051176958 0.049123578 0.021905469 -0.005419729 0.028037617 -0.042786177 -0.010648903
0.003007361 -0.034905106 -0.014618662 -0.0246608 0.062077165 0.053949274 0.055793587 0.052341405
-0.061452363 0.020245483 0.02129388 -0.046734303 0.02547635 -0.035041798 0.009938524 0.021669496
0.05591469 -0.032401223 -0.049142998 0.061726168 0.028013898 0.031894952 0.02389577 -0.021860369
0.040715504 -0.053868372 0.009203667 0.029417139 0.045462012 -0.028942186 -0.04147435 0.024839733
-0.047431465 -0.050175257 -0.0566646 -0.030504402 -0.011878822 -0.036573227 -0.027464516 -0.056975454
0.03854508 -0.014673267 -0.040416386 0.015920373 -0.04815298 0.04262475 0.03385968 -0.06325357
00000000: 8db2 693d 67e3 603d 5499 0ebd 43b1 823d
00000010: ecbc 8d3c cb33 2fbd fab2 093d e24b 41bd
00000020: 11bd 793d 8703 1abd 32df 963c 1b35 a63c
00000030: 007d 853c ea77 5d3d ecee cabc 10fd d8bc
00000040: 1401 5fbd 3883 2dbb f55b f3bc 0772 0e3b
00000050: 88c0 3ebc d6ef b53c 02f1 633d a815 9f3c
00000060: 95f9 9bbc 5773 08bd 4c97 6bbd 51d5 593d
00000070: 61f7 0dbc 74af 863c 25dc 0d3a 1a8c 2abd
00000080: 441f 123d 6e4c 1f3d d5e9 c93b d152 14bd
00000090: c8d0 d6bc 51fb 843a 2481 12bd ce41 0cbd
000000a0: 7c2b f5bb 97a4 87bc 8706 6c3c 64c5 9abc
000000b0: 5040 0fbc f247 b6bc 880b 67bd 4cb9 543d
000000c0: 4b94 043c 4c83 643d d747 30bc f115 75bc
000000d0: 6d82 67bd 9ba4 a8bc a993 333d 0e04 7abd
000000e0: 7ace 9bbc 3209 2f3d 28fa 1a3d 4f79 be3c
000000f0: 10f6 14bc c14b e3b9 a9a5 0ebc 56da b5bc
00000100: 3237 d93c 9317 90bc ac01 09bd 73cc 593c
00000110: 8b4f 3ebd ee65 58bc dc0b 053d f266 b53c
00000120: 9fcf 573d 7dc9 32bd 1173 b03a 0f49 8ebc
00000130: 4235 0bbd 78b7 0abd 96d5 813c 3aff c23b
00000140: 535b 02bd b98b 31bd ec94 52bd 91a0 7d3d
00000150: 920f 35bc d02d 62bc 4399 b5bc 7f4a 02bd
00000160: 53db 6bbd 0cad 14bd cf88 1e3d 3aab 643c
00000170: 2623 b3bc 3922 bfbc d46e 283d 381d 3e3d
00000180: 7f2e 7b3d 071a 9d3c bbae fc3c a3bf a5bb
00000190: 6419 24bd ae77 84bd e0a4 273d 3c22 08bb
000001a0: 863d 023d 543f e43a 8400 70bd 07b0 e0bc
000001b0: bbe2 bf3c 2f1c 0ebc 95fa 6cbd 7217 da3c
000001c0: 8d31 a83b dc83 9cbc faf3 dc3c c84b 8f3c
000001d0: b780 a5bc 53d2 613d 4fc3 f23c 28fa 013c
000001e0: b180 29bc 6d3c 5dbd 6cce 383d 8c56 9bbc
000001f0: 077e 24bd 9786 233d 83c1 ca3c 0d13 a73c
00000200: 6df2 07bc 8f5b 85bc 8d18 523c 1d18 593d
00000210: ea1d 653c fff4 e4bc 14ed 803d a8a8 5f3b
00000220: b383 583d 27a5 9b3c 3686 6e3d 193a 143d
00000230: c11f e6bc 35c3 403d 7405 f2b7 f0da 4dbd
00000240: e0e3 3dbc 45b8 6ebd 6dbb 0cbd 0ac9 39bd
00000250: 07b4 363d 67d2 34bc 798e 13bc 7531 003d
00000260: e0ec db3c 1588 2abd 9a8f c23c 3625 f13c
00000270: a1c8 4dbd f180 613d 1ff8 1cbd a10d ccbc
00000280: f73a 54bd b98e 693d 9da2 363c 0518 5a3d
00000290: c3f3 933b 79a1 0d3d b5ad a3bc fb26 4bbd
000002a0: bef4 3e3c 6916 82bb 8ff1 b3bb 6ff5 f6bc
000002b0: 1869 de3a d21c 9f3c b891 c13c 0675 4dbd
000002c0: 8b65 003d ec36 c83b 3c95 353d 0fd1 403d
000002d0: 04bc 44bd 9056 813d c045 80bd 052c 183d
000002e0: 071a d23b f0a0 f43c 6afd 0abd f699 203d
000002f0: e52b f0bc d275 60bd b5ae b73c 6495 1b3d
00000300: aac8 893d af9c 88bb bf00 813d 224e 2f3d
00000310: 36db ecbc f4dc 42bd f13f 0c3d ca7d 0dbd
00000320: 2ffc df3c ee9e 51bd ce35 493d 1973 b33c
00000330: fb97 b1bb 25af e53c 8f40 2fbd bd78 2ebc
00000340: 2517 453b a8f8 0ebd 1d83 6fbc 7205 cabc
00000350: a044 7e3d eaf9 5c3d d187 643d f163 563d
00000360: 79b5 7bbd dbd9 a53c 8170 ae3c 786c 3fbd
00000370: c7b3 d03c fd87 0fbd 31d5 223c 3a84 b13c
00000380: cd06 653d 25b7 04bd 2b4a 49bd 94d4 7c3d
00000390: 677d e53c 48a4 023d 10c1 c33c 8414 b3bc
000003a0: 4dc5 263d 15a5 5cbd faca 163c 36fc f03c
000003b0: 6036 3a3d 2a18 edbc 02e1 29bd b27c cb3c
000003c0: 7f47 42bd 9284 4dbd 2419 68bd 5ee4 f9bc
000003d0: 649f 42bc cfcd 15bd 44fd e0bc 185f 69bd
000003e0: 72e1 1d3d 2468 70bc a78b 25bd 716b 823c
000003f0: 0f3c 45bd 4a97 2e3d 73b0 0a3d 168b 81bd

conv2.bias f4 [20]
0.027794767 -0.009700802 0.05350843 -0.014034829 0.00026963922 -0.041203897 -0.039309025 -0.018539455
-0.05821431 -0.012589144 0.013334881 -0.044945784 -0.053788085 0.0564627 -0.027875742 -0.04682168
-0.014520358 -0.032898955 -0.060052376 -0.012727221
00000000: dab1 e33c 1df0 1ebc a82b 5b3d 57f2 65bc
00000010: 5d5e 8d39 6bc5 28bd 8002 21bd 0ee0 97bc
00000020: 2172 6ebd b242 4ebc 8b7a 5a3c 1219 38bd
00000030: e550 5cbd 6f45 673d ab5b e4bc 17c8 3fbd
00000040: cce6 6dbc 0ec1 06bd 7bf9 75bd d585 50bc

fc1.weight f4 [50, 320]
-0.025480695 -0.018101586 0.02648757 0.004085292 0.04659181 -0.058071587 0.049867418 0.031985555
-0.01705771 0.033441372 0.05516526 0.006703101 0.01456699 -0.017321743 -0.0020329822 -0.0024028171
-0.028816745 0.007828176 -0.025456814 0.029307172 0.009345466 -0.04245908 0.04996127 0.01641357
0.027559992 -0.05663246 0.046382807 0.01679959 -0.005076206 -0.036982115 0.011872326 0.021610182
0.015751185 0.035821598 -0.052856933 -0.043843113 0.053339016 0.045051288 -0.0025518732 0.03191623
0.040546723 0.03801344 -0.023992147 -0.019816918 -0.03021367 -0.016312527 0.05454455 -0.00171193
-0.044316873 0.04129182 0.020487998 0.009239004 -0.02940168 0.039819863 -0.046967234 0.027108153
-0.006276389 -0.020896254 -0.052065786 0.005130959 -0.024759712 -0.020864345 0.031476054 -0.036540896
0.051938925 0.044252206 0.038805135 0.0051536574 -0.0436143 -0.011934225 -0.026788065 -0.007808056
-0.052039824 -0.023666643 -0.010024563 0.00041986484 -0.015039099 0.011338015 -0.030210258 -0.03743963
-0.041192178 0.05129126 0.03347229 -0.049044617 -0.046573713 -0.0015734114 -0.028297357 0.01918841
-0.020870935 0.004509282 -0.014368788 -0.04468403 -0.0075145382 0.05053424 0.04213839 -0.039878562
0.016693233 0.04870518 0.004190401 -0.004297368 0.0478473 0.0010055993 -0.011472601 0.051495202
0.022354273 -0.035356067 0.03978682 0.045194633 0.0435404 -0.025371697 -0.021353403 0.03505887
0.041889273 -0.048076972 0.046706352 0.029235547 0.01829518 -0.018050712 -0.0068284906 0.035349425
0.010103371 0.04124711 -0.035461362 -0.018883819 -0.005974624 0.020067481 0.020455407 0.029438807
-0.031201998 -0.009936013 0.021806503 -0.024707478 0.040067095 0.039332695 0.031154057 0.029827865
0.034051687 -0.04745723 -0.016882092 0.041912388 -0.023613011 0.0037215906 -0.018849311 -0.0023839853
-0.011031236 -0.017979728 0.009347228 0.051643927 0.00091278576 -0.016940478 0.04373735 -0.028375238
0.014017411 0.0005694363 0.01471478 0.030783558 0.0150449015 -0.0033567336 0.024173133 0.007967458
-0.010531995 0.011959448 -0.028276332 0.005008748 -0.033287678 0.025767649 0.05436382 -0.018207043
-0.050761007 0.04631618 -0.02884739 0.037010685 0.038471237 -0.01929981 0.0015900827 -0.023669908
0.046664577 -0.041662067 0.003839229 -0.031415153 0.043331236 0.024324799 0.045803856 -0.026139095
0.018986389 -0.04842006 0.033583958 -0.017531184 0.018736783 0.027893243 -0.03303003 0.03276996
-0.023067204 0.021579858 -0.019057823 0.00246909 0.0054777605 0.04842108 0.01628961 0.009802541
-0.011144832 -0.055426843 -0.024420578 -0.018420955 0.01943014 -0.0036544795 0.017553026 -0.029010246
-0.056783684 0.020270543 0.029510166 0.028477643 0.04539321 -0.054584723 0.015453595 0.04350366
-0.029767485 0.031655908 0.029175526 0.012669158 -0.055255838 0.026112378 0.05013529 -0.0072035473
0.022317395 0.042313598 -0.04232747 -0.052350793 0.021310732 -0.004325801 -0.027159633 -0.050800614
-0.034656893 0.01544823 -0.0097494805 -0.04791327 -0.004621287 -0.002042515 -0.051463954 0.03231975
0.055603176 0.038746517 -0.050717406 -0.03542643 -0.044029046 0.046142563 -0.024861822 0.043230176
-0.023184352 0.02253028 0.040307302 -0.025870644 0.024604723 0.026960647 0.011291508 -0.022311412
00000000: e4bc d0bc c749 94bc 76fc d83c eadd 853b
00000010: 0ed7 3e3d 79dc 6dbd c741 4c3d 4903 033d
00000020: 9cbc 8bbc d2f9 083d f8f4 613d b0a5 db3b
00000030: 62aa 6e3c 54e6 8dbc c83b 05bb 9578 1dbb
00000040: 1811 ecbc c041 003c cf8a d0bc 9815 f03c
00000050: ba1d 193c 93e9 2dbd 30a4 4c3d c075 863c
00000060: 7ec5 e13c 70f7 67bd e6fb 3d3d 4b9f 893c
00000070: 4d56 a6bb 8f7a 17bd 2584 423c d607 b13c
00000080: a108 813c abb9 123d 8380 58bd d694 33bd
00000090: 037a 5a3d b387 383d 543d 27bb 98ba 023d
000000a0: 5214 263d fbb3 1b3d 2e8b c4bc 1757 a2bc
000000b0: a982 f7bc d9a1 85bc 1b6a 5f3d d762 e0ba
000000c0: 9c85 35bd 9d21 293d 72d6 a73c 315f 173c
000000d0: cbdb f0bc 271a 233d b760 40bd eb11 de3c
000000e0: 2baa cdbb 9f2e abbc ef42 55bd 9b21 a83b
000000f0: e1d4 cabc b4eb aabc 09ed 003d e8ab 15bd
00000100: e9bd 543d cd41 353d 22f2 1e3d 03e0 a83b
00000110: e9a4 32bd c587 43bc a572 dbbc b9da ffbb
00000120: b627 55bd 8ce0 c1bc 113e 24bc 4e21 dc39
00000130: 8e66 76bc 15c3 393c 817b f7bc 4c5a 19bd
00000140: 21b9 28bd c916 523d 3d1a 093d 02e3 48bd
00000150: 14c4 3ebd ed3a ceba dccf e7bc 0331 9d3c
00000160: 86f9 aabc 99c2 933b 116b 6bbc 9a06 37bd
00000170: 843c f6bb fefc 4e3d 4e99 2c3d b457 23bd
00000180: 3fc0 883c 157f 473d a24f 893b f0d0 8cbb
00000190: 88fb 433d 50ce 833a 94f7 3bbc a2ec 523d
000001a0: 4f20 b73c 86d1 10bd 81f7 223d 021e 393d
000001b0: 6b57 323d 4ed8 cfbc 55ed aebc e499 0f3d
000001c0: 1694 2b3d 5cec 44bd 294f 3f3d 637f ef3c
000001d0: c6df 953c 16df 93bc 88c1 dfbb 8fca 103d
000001e0: 9c88 253c bbf2 283d ef3f 11bd 3db2 9abc
000001f0: c7c6 c3bb 8f64 a43c 1992 a73c a729 f13c
00000200: 559b ffbc a9ca 22bc 8da3 b23c 5667 cabc
00000210: 651d 243d 521b 213d cb36 ff3c 9159 f43c
00000220: c879 0b3d 8362 42bd 504c 8abc 53ac 2b3d
00000230: 1370 c1bc eee5 733b df69 9abc a33c 1cbb
00000240: 5bbc 34bc 394a 93bc 1e25 193c 9588 533d
00000250: 0448 6f3a c2c6 8abc ef25 333d 3073 e8bc
00000260: 48a9 653c 3946 153a 4316 713c cd2d fc3c
00000270: e47e 763c a5fc 5bbb bc06 c63c f189 023c
00000280: 648e 2cbc 90f1 433c c4a3 e7bc 6c20 a43b
00000290: a958 08bd ad16 d33c 99ac 5e3d f026 95bc
000002a0: c6ea 4fbd 09b6 3d3d 5d51 ecbc 8498 173d
000002b0: 0494 1d3d a31a 9ebc 526a d03a 65e7 c1bc
000002c0: 5b23 3f3d d8a5 2abd 939b 7b3b 2dad 00bd
000002d0: 187c 313d cd44 c73c d39c 3b3d a821 d6bc
000002e0: 5889 9b3c 1d54 46bd 558f 093d 8f9d 8fbc
000002f0: e27d 993c 5f80 e43c 7f4a 07bd cb39 063d
00000300: 6ff7 bcbc 3ec8 b03c 271f 9cbc 75d0 213b
00000310: c97e b33b 2f55 463d ca71 853c d69a 203c
00000320: d098 36bc 4207 63bd aa0d c8bc 8be7 96bc
00000330: f52b 9f3c fe7f 6fbb 5dcb 8f3c e5a6 edbc
00000340: 0296 68bd 690e a63c 4ebf f13c f249 e93c
00000350: 3bee 393d 3b94 5fbd 1331 7d3c e530 323d
00000360: f1da f3bc a0a9 013d 8301 ef3c 4d92 4f3c
00000370: f253 62bd a0e9 d53c a95a 4d3d bc0b ecbb
00000380: f8d2 b63c 0651 2d3d 925f 2dbd c96d 56bd
00000390: d893 ae3c 73bf 8dbb e17d debc 4e14 50bd
000003a0: 63f4 0dbd 931a 7d3c 49bc 1fbc b440 44bd
000003b0: 2a6e 97bb b7db 05bb decb 52bd b761 043d
000003c0: 28c0 633d abb4 1e3d 0ebd 4fbd 4e1b 11bd
000003d0: cd57 34bd fcff 3c3d 05ab cbbc 2012 313d
000003e0: 1ced bdbc 6c91 b83c 4519 253d acee d3bc
000003f0: d88f c93c 93dc dc3c 0400 393c 6cc6 b6bc

fc1.bias f4 [50]
0.047226887 0.026211314 -0.011234991 0.0023779739 0.016985692 -0.015619845 -0.009360847 -0.044323742
0.003646203 0.006875033 0.015799139 0.036668997 -0.015067389 -0.011155324 -0.0061048083 -0.04742133
0.050147254 0.006220026 0.043398485 -0.050862208 -0.008138667 0.020691333 -0.023163935 0.0376791
0.03377339 -0.006281593 0.057935882 -0.03460839 -0.052060053 -0.037732057 -0.036147907 0.0411042
0.0043372144 -0.051873412 -0.05140911 0.053662118 -0.009359123 -0.055167835 0.02683186 -0.028169708
8.98523e-05 0.050449908 0.030467002 -0.04535395 -0.03176936 0.008252241 -0.055774294 -0.05045429
0.047245707 0.020194164
00000000: fb70 413d 1cb9 d63c f812 38bc c8d7 1b3b
00000010: 9425 8b3c 61ea 7fbc 3d5e 19bc d08c 35bd
00000020: 23f5 6e3b f547 e13b 326d 813c 3b32 163d
00000030: 36dd 76bc d2c4 36bc d80a c8bb de3c 42bd
00000040: 3567 4d3d 5cd1 cb3b 9cc2 313d e454 50bd
00000050: 0b58 05bc df80 a93c 4bc2 bdbc 6655 1a3d
00000060: f755 0a3d d2d5 cdbb 2d4e 6d3d 87c1 0dbd
00000070: ec3c 55bd ee8c 1abd d40f 14bd e15c 283d
00000080: 311f 8e3b 3779 54bd 5c92 52bd cfcc 5b3d
00000090: 0257 19bc abf7 61bd 7dce db3c 29c4 e6bc
000000a0: 166f bc38 90a4 4e3d ef95 f93c 10c5 39bd
000000b0: 9720 02bd 6834 073c 9673 64bd 28a9 4ebd
000000c0: b784 413d 3b6e a53c

fc2.weight f4 [10, 50]
0.12724592 0.01457816 0.008090183 -0.0135894045 -0.05409111 -0.035304036 -0.09817718 -0.082476564
-0.024686348 -0.09791381 -0.09676899 -0.048882637 0.010344971 -0.040345978 0.07594868 0.068757854
0.104923114 0.098964185 0.09542646 0.06931574 0.0030804765 -0.13374472 -0.023986887 -0.06067314
0.024366608 -0.11699863 -0.05338987 -0.14319956 0.13207352 0.12769715 -0.09092626 0.055539723
0.10176795 0.029250195 -0.08808343 0.09128538 0.03142175 0.059907205 -0.035941333 -0.11552981
-0.07476811 -0.11493138 0.0720239 -0.01769752 0.011568496 0.12252344 -0.05362382 -0.05339598
0.12987438 0.043279897 0.070765845 0.13734148 -0.08461978 0.121409655 0.09905537 0.07552484
-0.10835401 0.020031882 -0.027188718 -0.10967833 0.06716922 0.09857404 -0.050677978 -0.04040828
0.040064856 -0.14165738 0.06454417 0.060632806 -0.06128911 0.030289277 -0.01634669 0.06540435
0.057142343 0.114567645 0.108712755 -0.13785683 -0.12130508 0.10644375 0.054972265 0.11949286
0.093391314 0.057048686 -0.108679555 -0.0425363 0.08774281 0.040423367 -0.049276147 -0.009767922
0.046620574 0.13869677 -0.06899371 0.07907319 -0.0189114 -0.12449843 0.09202354 -0.09521821
-0.12971723 0.10299242 -0.08534357 0.023692546 0.0062754946 -0.04142834 -0.07605924 -0.066408366
-0.09141642 0.09437325 0.12727791 -0.06510777 0.10376164 0.022837752 0.074636325 0.12793833
0.07434169 0.12781918 -0.022788147 0.016767966 -0.07710325 -0.001029727 -0.08399139 -0.13132751
-0.09422273 0.03271479 -0.13405529 -0.12912816 -0.09740326 -0.09614588 -0.08799911 0.0670503
-0.120839395 0.00382622 -0.14025494 -0.0038453988 -0.05979451 -0.117593616 0.065130435 0.085966416
-0.057175722 -0.13916455 0.10300825 -0.01723382 0.09423083 0.1196318 -0.09270161 -0.037083384
-0.006472338 0.0626495 0.13151199 0.032296494 -0.11583879 0.114322595 0.032991435 0.070252664
0.11564185 -0.08273132 0.023560531 -0.12813982 0.006168204 0.06241551 0.054692667 -0.034620646
-0.00072373013 0.13311723 -0.07743093 -0.07625369 0.10999108 -0.0013671293 -0.050907925 0.035009507
-0.07657945 0.054838624 0.042293116 0.13658799 0.09914593 -0.0045148856 -0.08246075 -0.07566169
0.079454064 -0.08376134 0.09798581 -0.091439016 -0.08006728 0.092056595 -0.07103964 0.06977438
0.122946486 0.07001064 0.09501898 0.09227361 -0.10025524 0.040618453 0.04302216 0.11950377
-0.12314902 0.121115245 0.03000182 0.08996137 -0.09281105 -0.03300915 0.08766821 0.12330597
0.010707174 0.038100716 0.03413288 0.06665119 0.023311244 0.13681927 0.030322049 -0.08622605
0.049911186 -0.1327793 0.05079937 0.08112987 0.103758626 -0.09517988 0.06724155 0.09932095
-0.027624061 -0.031946357 -0.018956168 -0.03397926 -0.052577708 -0.1253332 0.13386889 0.085135885
0.068002 0.016667718 -0.06350186 -0.033531927 0.03975531 -0.0074317316 0.020311097 0.061623074
-0.12954271 -0.104448006 -0.06736762 -0.04732367 0.01940126 0.13018386 0.04655443 -0.019481722
-0.034228515 -0.034876887 -0.0052287 -0.0067918003 -0.08510368 0.11928399 -0.09216854 -0.12310907
0.118717164 -0.041225445 -0.046479713 -0.09158677 -0.07134445 -0.11987757 0.034145437 0.047827855
00000000: c14c 023e 3cd9 6e3c b08c 043c 18a6 5ebc
00000010: a48e 5dbd f79a 10bd 1e11 c9bd 79e9 a8bd
00000020: 063b cabc 0987 c8bd d22e c6bd 2939 48bd
00000030: f47d 293c d341 25bd fb8a 9b3d ebd0 8c3d
00000040: eee1 d63d bcad ca3d f36e c33d 69f5 8d3d
00000050: d2e1 493b 60f4 08be 2680 c4bc 6684 78bd
00000060: 7b9c c73c fa9c efbd 56af 5abd e8a2 12be
00000070: 483e 073e 0bc3 023e 8c37 babd 9f7d 633d
00000080: b76b d03d 1b9e ef3c 1665 b4bd d4f3 ba3d
00000090: 18b4 003d 4261 753d 3837 13bd e59a ecbd
000000a0: 0620 99bd 2561 ebbd 4481 933d 64fa 90bc
000000b0: ca89 3d3c 92ed fa3d a7a4 5bbd beb5 5abd
000000c0: cafd 043e 4346 313d afed 903d 3fa3 0c3e
000000d0: 234d adbd a0a5 f83d 8bdd ca3d c4ac 9a3d
000000e0: b5e8 ddbd e719 a43c e0ba debc 089f e0bd
000000f0: 0490 893d 30e1 c93d b693 4fbd 2783 25bd
00000100: 0c1b 243d a20e 11be bc2f 843d 1b5a 783d
00000110: 4a0a 7bbd 3821 f83c 7ee9 85bc b7f2 853d
00000120: 170e 6a3d 71a2 ea3d cba4 de3d 572a 0dbe
00000130: cc6e f8bd 2eff d93d 992a 613d acb8 f43d
00000140: f243 bf3d e2ab 693d 6393 debd 8b3a 2ebd
00000150: 81b2 b33d f992 253d c9d5 49bd a209 20bc
00000160: 37f5 3e3d 8706 0e3e 934c 8dbd 20f1 a13d
00000170: 15ec 9abc 08f9 febd d676 bc3d c401 c3bd
00000180: 98d4 04be b1ed d23d 9cc8 aebd df16 c23c
00000190: aaa2 cd3b c3b0 29bd f2c4 9bbd 1c01 88bd
000001a0: 8838 bbbd c346 c13d 2455 023e 3957 85bd
000001b0: fc80 d43d 3d16 bb3c eeda 983d 4402 033e
000001c0: 7540 983d 08e3 023e 35ae babc f95c 893c
000001d0: 4fe8 9dbd e8f7 86ba ae03 acbd b87a 06be
000001e0: d9f7 c0bd f2ff 053d ca45 09be 2c3a 04be
000001f0: 5c7b c7bd 22e8 c4bd e138 b4bd ab51 893d
00000200: a57a f7bd 52c1 7a3b fe9e 0fbe 1603 7cbb
00000210: 17eb 74bd ecd4 f0bd 1b63 853d 290f b03d
00000220: 1731 6abd 2781 0ebe fdf5 d23d f12d 8dbc
00000230: 18fc c03d 8401 f53d 57da bdbd bfe4 17bd
00000240: e815 d4bb 624e 803d 14ab 063e 5449 043d
00000250: e33c edbd f721 ea3d 0722 073d a1e0 8f3d
00000260: a2d5 ec3d 0a6f a9bd 0402 c13c 1637 03be
00000270: a51e ca3b 68a7 7f3d 6b05 603d 61ce 0dbd
00000280: b5b8 3dba e24f 083e 1c94 9ebd e52a 9cbd
00000290: 0143 e13d 3f31 b3ba d484 50bd 2166 0f3d
000002a0: b0d5 9cbd 779e 603d 8c3b 2d3d b9dd 0b3e
000002b0: 050d cb3d 9bf1 93bb 2fe1 a8bd 84f4 9abd
000002c0: d0b8 a23d 118b abbd c9ac c83d 6144 bbbd
000002d0: 50fa a3bd 2b88 bc3d 3b7d 91bd dfe5 8e3d
000002e0: 5ecb fb3d bd61 8f3d 5099 c23d f2f9 bc3d
000002f0: 9f52 cdbd 895f 263d 0138 303d 64be f43d
00000300: 8e35 fcbd 450b f83d 60c6 f53c ab3d b83d
00000310: b813 bebd 9a34 07bd 648b b33d d787 fc3d
00000320: 256d 2f3c 7f0f 1c3d ebce 0b3d 6b80 883d
00000330: 39f7 be3c 5a1a 0c3e f265 f83c 4997 b0bd
00000340: ac6f 4c3d 4cf7 07be 0013 503d 6b27 a63d
00000350: 677f d43d abed c2bd f0b5 893d c868 cb3d
00000360: db4b e2bc 2fda 02bd f749 9bbc d62d 0bbd
00000370: b95b 57bd 5957 00be ed14 093e b95b ae3d
00000380: a244 8b3d bd8a 883c 430d 82bd c658 09bd
00000390: 77d6 223d e285 f3bb 7563 a63c 7a68 7c3d
000003a0: d8a6 04be d6e8 d5bd 09f8 89bd 77d6 41bd
000003b0: 64ef 9e3c eb4e 053e dcaf 3e3d 2298 9fbc
000003c0: 3333 0cbd 11db 0ebd 8455 abbb c08d debb
000003d0: d74a aebd 2a4b f43d dcc2 bcbd 9c20 fcbd
000003e0: fc21 f33d 03dc 28bd 8361 3ebd d891 bbbd
000003f0: 0a1d 92bd 5f82 f5bd 16dc 0b3d 24e7 433d

fc2.bias f4 [10]
-0.041237544 0.08725405 -0.08188873 -0.1234039 0.0785755 -0.032705624 0.0022190502 -0.03405162
-0.09190627 -0.06126059
00000000: b3e8 28bd 40b2 b23d 47b5 a7bd 2fbb fcbd
00000010: 31ec a03d 55f6 05bd 7c6d 113b b679 0bbd
00000020: 5b39 bcbd 62ec 7abd

mnn_quant_0_conv2d_weight._prune_mask f4 [10, 1, 5, 5]
1.0 1.0 1.0 1.0 1.0 1.0 1.0 1.0
1.0 1.0 1.0 1.0 1.0 1.0 1.0 1.0
1.0 1.0 1.0 1.0 1.0 1.0 1.0 1.0
1.0 1.0 1.0 1.0 1.0 1.0 1.0 1.0
1.0 1.0 1.0 1.0 1.0 1.0 1.0 1.0
1.0 1.0 1.0 1.0 1.0 1.0 1.0 1.0
1.0 1.0 1.0 1.0 1.0 1.0 1.0 1.0
1.0 1.0 1.0 1.0 1.0 1.0 1.0 1.0
1.0 1.0 1.0 1.0 1.0 1.0 1.0 1.0
1.0 1.0 1.0 1.0 1.0 1.0 1.0 1.0
1.0 1.0 1.0 1.0 1.0 1.0 1.0 1.0
1.0 1.0 1.0 1.0 1.0 1.0 1.0 1.0
1.0 1.0 1.0 1.0 1.0 1.0 1.0 1.0
1.0 1.0 1.0 1.0 1.0 1.0 1.0 1.0
1.0 1.0 1.0 1.0 1.0 1.0 1.0 1.0
1.0 1.0 1.0 1.0 1.0 1.0 1.0 1.0
1.0 1.0 1.0 1.0 1.0 1.0 1.0 1.0
1.0 1.0 1.0 1.0 1.0 1.0 1.0 1.0
1.0 1.0 1.0 1.0 1.0 1.0 1.0 1.0
1.0 1.0 1.0 1.0 1.0 1.0 1.0 1.0
1.0 1.0 1.0 1.0 1.0 1.0 1.0 1.0
1.0 1.0 1.0 1.0 1.0 1.0 1.0 1.0
1.0 1.0 1.0 1.0 1.0 1.0 1.0 1.0
1.0 1.0 1.0 1.0 1.0 1.0 1.0 1.0
1.0 1.0 1.0 1.0 1.0 1.0 1.0 1.0
1.0 1.0 1.0 1.0 1.0 1.0 1.0 1.0
1.0 1.0 1.0 1.0 1.0 1.0 1.0 1.0
1.0 1.0 1.0 1.0 1.0 1.0 1.0 1.0
1.0 1.0 1.0 1.0 1.0 1.0 1.0 1.0
1.0 1.0 1.0 1.0 1.0 1.0 1.0 1.0
1.0 1.0 1.0 1.0 1.0 1.0 1.0 1.0
1.0 1.0
00000000: 0000 803f 0000 803f 0000 803f 0000 803f
00000010: 0000 803f 0000 803f 0000 803f 0000 803f
00000020: 0000 803f 0000 803f 0000 803f 0000 803f
00000030: 0000 803f 0000 803f 0000 803f 0000 803f
00000040: 0000 803f 0000 803f 0000 803f 0000 803f
00000050: 0000 803f 0000 803f 0000 803f 0000 803f
00000060: 0000 803f 0000 803f 0000 803f 0000 803f
00000070: 0000 803f 0000 803f 0000 803f 0000 803f
00000080: 0000 803f 0000 803f 0000 803f 0000 803f
00000090: 0000 803f 0000 803f 0000 803f 0000 803f
000000a0: 0000 803f 0000 803f 0000 803f 0000 803f
000000b0: 0000 803f 0000 803f 0000 803f 0000 803f
000000c0: 0000 803f 0000 803f 0000 803f 0000 803f
000000d0: 0000 803f 0000 803f 0000 803f 0000 803f
000000e0: 0000 803f 0000 803f 0000 803f 0000 803f
000000f0: 0000 803f 0000 803f 0000 803f 0000 803f
00000100: 0000 803f 0000 803f 0000 803f 0000 803f
00000110: 0000 803f 0000 803f 0000 803f 0000 803f
00000120: 0000 803f 0000 803f 0000 803f 0000 803f
00000130: 0000 803f 0000 803f 0000 803f 0000 803f
00000140: 0000 803f 0000 803f 0000 803f 0000 803f
00000150: 0000 803f 0000 803f 0000 803f 0000 803f
00000160: 0000 803f 0000 803f 0000 803f 0000 803f
00000170: 0000 803f 0000 803f 0000 803f 0000 803f
00000180: 0000 803f 0000 803f 0000 803f 0000 803f
00000190: 0000 803f 0000 803f 0000 803f 0000 803f
000001a0: 0000 803f 0000 803f 0000 803f 0000 803f
000001b0: 0000 803f 0000 803f 0000 803f 0000 803f
000001c0: 0000 803f 0000 803f 0000 803f 0000 803f
000001d0: 0000 803f 0000 803f 0000 803f 0000 803f
000001e0: 0000 803f 0000 803f 0000 803f 0000 803f
000001f0: 0000 803f 0000 803f 0000 803f 0000 803f
00000200: 0000 803f 0000 803f 0000 803f 0000 803f
00000210: 0000 803f 0000 803f 0000 803f 0000 803f
00000220: 0000 803f 0000 803f 0000 803f 0000 803f
00000230: 0000 803f 0000 803f 0000 803f 0000 803f
00000240: 0000 803f 0000 803f 0000 803f 0000 803f
00000250: 0000 803f 0000 803f 0000 803f 0000 803f
00000260: 0000 803f 0000 803f 0000 803f 0000 803f
00000270: 0000 803f 0000 803f 0000 803f 0000 803f
00000280: 0000 803f 0000 803f 0000 803f 0000 803f
00000290: 0000 803f 0000 803f 0000 803f 0000 803f
000002a0: 0000 803f 0000 803f 0000 803f 0000 803f
000002b0: 0000 803f 0000 803f 0000 803f 0000 803f
000002c0: 0000 803f 0000 803f 0000 803f 0000 803f
000002d0: 0000 803f 0000 803f 0000 803f 0000 803f
000002e0: 0000 803f 0000 803f 0000 803f 0000 803f
000002f0: 0000 803f 0000 803f 0000 803f 0000 803f
00000300: 0000 803f 0000 803f 0000 803f 0000 803f
00000310: 0000 803f 0000 803f 0000 803f 0000 803f
00000320: 0000 803f 0000 803f 0000 803f 0000 803f
00000330: 0000 803f 0000 803f 0000 803f 0000 803f
00000340: 0000 803f 0000 803f 0000 803f 0000 803f
00000350: 0000 803f 0000 803f 0000 803f 0000 803f
00000360: 0000 803f 0000 803f 0000 803f 0000 803f
00000370: 0000 803f 0000 803f 0000 803f 0000 803f
00000380: 0000 803f 0000 803f 0000 803f 0000 803f
00000390: 0000 803f 0000 803f 0000 803f 0000 803f
000003a0: 0000 803f 0000 803f 0000 803f 0000 803f
000003b0: 0000 803f 0000 803f 0000 803f 0000 803f
000003c0: 0000 803f 0000 803f 0000 803f 0000 803f
000003d0: 0000 803f 0000 803f 0000 803f 0000 803f
000003e0: 0000 803f 0000 803f

mnn_quant_1_conv2d_1_weight._prune_mask f4 [20, 10, 5, 5]
1.0 1.0 1.0 1.0 1.0 1.0 1.0 1.0
1.0 1.0 1.0 1.0 1.0 1.0 1.0 1.0
1.0 1.0 1.0 1.0 1.0 1.0 1.0 1.0
1.0 1.0 1.0 1.0 1.0 1.0 1.0 1.0
1.0 1.0 1.0 1.0 1.0 1.0 1.0 1.0
1.0 1.0 1.0 1.0 1.0 1.0 1.0 1.0
1.0 1.0 1.0 1.0 1.0 1.0 1.0 1.0
1.0 1.0 1.0 1.0 1.0 1.0 1.0 1.0
1.0 1.0 1.0 1.0 1.0 1.0 1.0 1.0
1.0 1.0 1.0 1.0 1.0 1.0 1.0 1.0
1.0 1.0 1.0 1.0 1.0 1.0 1.0 1.0
1.0 1.0 1.0 1.0 1.0 1.0 1.0 1.0
1.0 1.0 1.0 1.0 1.0 1.0 1.0 1.0
1.0 1.0 1.0 1.0 1.0 1.0 1.0 1.0
1.0 1.0 1.0 1.0 1.0 1.0 1.0 1.0
1.0 1.0 1.0 1.0 1.0 1.0 1.0 1.0
1.0 1.0 1.0 1.0 1.0 1.0 1.0 1.0
1.0 1.0 1.0 1.0 1.0 1.0 1.0 1.0
1.0 1.0 1.0 1.0 1.0 1.0 1.0 1.0
1.0 1.0 1.0 1.0 1.0 1.0 1.0 1.0
1.0 1.0 1.0 1.0 1.0 1.0 1.0 1.0
1.0 1.0 1.0 1.0 1.0 1.0 1.0 1.0
1.0 1.0 1.0 1.0 1.0 1.0 1.0 1.0
1.0 1.0 1.0 1.0 1.0 1.0 1.0 1.0
1.0 1.0 1.0 1.0 1.0 1.0 1.0 1.0
1.0 1.0 1.0 1.0 1.0 1.0 1.0 1.0
1.0 1.0 1.0 1.0 1.0 1.0 1.0 1.0
1.0 1.0 1.0 1.0 1.0 1.0 1.0 1.0
1.0 1.0 1.0 1.0 1.0 1.0 1.0 1.0
1.0 1.0 1.0 1.0 1.0 1.0 1.0 1.0
1.0 1.0 1.0 1.0 1.0 1.0 1.0 1.0
1.0 1.0 1.0 1.0 1.0 1.0 1.0 1.0
00000000: 0000 803f 0000 803f 0000 803f 0000 803f
00000010: 0000 803f 0000 803f 0000 803f 0000 803f
00000020: 0000 803f 0000 803f 0000 803f 0000 803f
00000030: 0000 803f 0000 803f 0000 803f 0000 803f
00000040: 0000 803f 0000 803f 0000 803f 0000 803f
00000050: 0000 803f 0000 803f 0000 803f 0000 803f
00000060: 0000 803f 0000 803f 0000 803f 0000 803f
00000070: 0000 803f 0000 803f 0000 803f 0000 803f
00000080: 0000 803f 0000 803f 0000 803f 0000 803f
00000090: 0000 803f 0000 803f 0000 803f 0000 803f
000000a0: 0000 803f 0000 803f 0000 803f 0000 803f
000000b0: 0000 803f 0000 803f 0000 803f 0000 803f
000000c0: 0000 803f 0000 803f 0000 803f 0000 803f
000000d0: 0000 803f 0000 803f 0000 803f 0000 803f
000000e0: 0000 803f 0000 803f 0000 803f 0000 803f
000000f0: 0000 803f 0000 803f 0000 803f 0000 803f
00000100: 0000 803f 0000 803f 0000 803f 0000 803f
00000110: 0000 803f 0000 803f 0000 803f 0000 803f
00000120: 0000 803f 0000 803f 0000 803f 0000 803f
00000130: 0000 803f 0000 803f 0000 803f 0000 803f
00000140: 0000 803f 0000 803f 0000 803f 0000 803f
00000150: 0000 803f 0000 803f 0000 803f 0000 803f
00000160: 0000 803f 0000 803f 0000 803f 0000 803f
00000170: 0000 803f 0000 803f 0000 803f 0000 803f
00000180: 0000 803f 0000 803f 0000 803f 0000 803f
00000190: 0000 803f 0000 803f 0000 803f 0000 803f
000001a0: 0000 803f 0000 803f 0000 803f 0000 803f
000001b0: 0000 803f 0000 803f 0000 803f 0000 803f
000001c0: 0000 803f 0000 803f 0000 803f 0000 803f
000001d0: 0000 803f 0000 803f 0000 803f 0000 803f
000001e0: 0000 803f 0000 803f 0000 803f 0000 803f
000001f0: 0000 803f 0000 803f 0000 803f 0000 803f
00000200: 0000 803f 0000 803f 0000 803f 0000 803f
00000210: 0000 803f 0000 803f 0000 803f 0000 803f
00000220: 0000 803f 0000 803f 0000 803f 0000 803f
00000230: 0000 803f 0000 803f 0000 803f 0000 803f
00000240: 0000 803f 0000 803f 0000 803f 0000 803f
00000250: 0000 803f 0000 803f 0000 803f 0000 803f
00000260: 0000 803f 0000 803f 0000 803f 0000 803f
00000270: 0000 803f 0000 803f 0000 803f 0000 803f
00000280: 0000 803f 0000 803f 0000 803f 0000 803f
00000290: 0000 803f 0000 803f 0000 803f 0000 803f
000002a0: 0000 803f 0000 803f 0000 803f 0000 803f
000002b0: 0000 803f 0000 803f 0000 803f 0000 803f
000002c0: 0000 803f 0000 803f 0000 803f 0000 803f
000002d0: 0000 803f 0000 803f 0000 803f 0000 803f
000002e0: 0000 803f 0000 803f 0000 803f 0000 803f
000002f0: 0000 803f 0000 803f 0000 803f 0000 803f
00000300: 0000 803f 0000 803f 0000 803f 0000 803f
00000310: 0000 803f 0000 803f 0000 803f 0000 803f
00000320: 0000 803f 0000 803f 0000 803f 0000 803f
00000330: 0000 803f 0000 803f 0000 803f 0000 803f
00000340: 0000 803f 0000 803f 0000 803f 0000 803f
00000350: 0000 803f 0000 803f 0000 803f 0000 803f
00000360: 0000 803f 0000 803f 0000 803f 0000 803f
00000370: 0000 803f 0000 803f 0000 803f 0000 803f
00000380: 0000 803f 0000 803f 0000 803f 0000 803f
00000390: 0000 803f 0000 803f 0000 803f 0000 803f
000003a0: 0000 803f 0000 803f 0000 803f 0000 803f
000003b0: 0000 803f 0000 803f 0000 803f 0000 803f
000003c0: 0000 803f 0000 803f 0000 803f 0000 803f
000003d0: 0000 803f 0000 803f 0000 803f 0000 803f
000003e0: 0000 803f 0000 803f 0000 803f 0000 803f
000003f0: 0000 803f 0000 803f 0000 803f 0000 803f

mnn_quant_2_linear_weight._prune_mask f4 [50, 320]
1.0 1.0 1.0 1.0 1.0 1.0 1.0 1.0
1.0 1.0 1.0 1.0 1.0 1.0 1.0 1.0
1.0 1.0 1.0 1.0 1.0 1.0 1.0 1.0
1.0 1.0 1.0 1.0 1.0 1.0 1.0 1.0
1.0 1.0 1.0 1.0 1.0 1.0 1.0 1.0
1.0 1.0 1.0 1.0 1.0 1.0 1.0 1.0
1.0 1.0 1.0 1.0 1.0 1.0 1.0 1.0
1.0 1.0 1.0 1.0 1.0 1.0 1.0 1.0
1.0 1.0 1.0 1.0 1.0 1.0 1.0 1.0
1.0 1.0 1.0 1.0 1.0 1.0 1.0 1.0
1.0 1.0 1.0 1.0 1.0 1.0 1.0 1.0
1.0 1.0 1.0 1.0 1.0 1.0 1.0 1.0
1.0 1.0 1.0 1.0 1.0 1.0 1.0 1.0
1.0 1.0 1.0 1.0 1.0 1.0 1.0 1.0
1.0 1.0 1.0 1.0 1.0 1.0 1.0 1.0
1.0 1.0 1.0 1.0 1.0 1.0 1.0 1.0
1.0 1.0 1.0 1.0 1.0 1.0 1.0 1.0
1.0 1.0 1.0 1.0 1.0 1.0 1.0 1.0
1.0 1.0 1.0 1.0 1.0 1.0 1.0 1.0
1.0 1.0 1.0 1.0 1.0 1.0 1.0 1.0
1.0 1.0 1.0 1.0 1.0 1.0 1.0 1.0
1.0 1.0 1.0 1.0 1.0 1.0 1.0 1.0
1.0 1.0 1.0 1.0 1.0 1.0 1.0 1.0
1.0 1.0 1.0 1.0 1.0 1.0 1.0 1.0
1.0 1.0 1.0 1.0 1.0 1.0 1.0 1.0
1.0 1.0 1.0 1.0 1.0 1.0 1.0 1.0
1.0 1.0 1.0 1.0 1.0 1.0 1.0 1.0
1.0 1.0 1.0 1.0 1.0 1.0 1.0 1.0
1.0 1.0 1.0 1.0 1.0 1.0 1.0 1.0
1.0 1.0 1.0 1.0 1.0 1.0 1.0 1.0
1.0 1.0 1.0 1.0 1.0 1.0 1.0 1.0
1.0 1.0 1.0 1.0 1.0 1.0 1.0 1.0
00000000: 0000 803f 0000 803f 0000 803f 0000 803f
00000010: 0000 803f 0000 803f 0000 803f 0000 803f
00000020: 0000 803f 0000 803f 0000 803f 0000 803f
00000030: 0000 803f 0000 803f 0000 803f 0000 803f
00000040: 0000 803f 0000 803f 0000 803f 0000 803f
00000050: 0000 803f 0000 803f 0000 803f 0000 803f
00000060: 0000 803f 0000 803f 0000 803f 0000 803f
00000070: 0000 803f 0000 803f 0000 803f 0000 803f
00000080: 0000 803f 0000 803f 0000 803f 0000 803f
00000090: 0000 803f 0000 803f 0000 803f 0000 803f
000000a0: 0000 803f 0000 803f 0000 803f 0000 803f
000000b0: 0000 803f 0000 803f 0000 803f 0000 803f
000000c0: 0000 803f 0000 803f 0000 803f 0000 803f
000000d0: 0000 803f 0000 803f 0000 803f 0000 803f
000000e0: 0000 803f 0000 803f 0000 803f 0000 803f
000000f0: 0000 803f 0000 803f 0000 803f 0000 803f
00000100: 0000 803f 0000 803f 0000 803f 0000 803f
00000110: 0000 803f 0000 803f 0000 803f 0000 803f
00000120: 0000 803f 0000 803f 0000 803f 0000 803f
00000130: 0000 803f 0000 803f 0000 803f 0000 803f
00000140: 0000 803f 0000 803f 0000 803f 0000 803f
00000150: 0000 803f 0000 803f 0000 803f 0000 803f
00000160: 0000 803f 0000 803f 0000 803f 0000 803f
00000170: 0000 803f 0000 803f 0000 803f 0000 803f
00000180: 0000 803f 0000 803f 0000 803f 0000 803f
00000190: 0000 803f 0000 803f 0000 803f 0000 803f
000001a0: 0000 803f 0000 803f 0000 803f 0000 803f
000001b0: 0000 803f 0000 803f 0000 803f 0000 803f
000001c0: 0000 803f 0000 803f 0000 803f 0000 803f
000001d0: 0000 803f 0000 803f 0000 803f 0000 803f
000001e0: 0000 803f 0000 803f 0000 803f 0000 803f
000001f0: 0000 803f 0000 803f 0000 803f 0000 803f
00000200: 0000 803f 0000 803f 0000 803f 0000 803f
00000210: 0000 803f 0000 803f 0000 803f 0000 803f
00000220: 0000 803f 0000 803f 0000 803f 0000 803f
00000230: 0000 803f 0000 803f 0000 803f 0000 803f
00000240: 0000 803f 0000 803f 0000 803f 0000 803f
00000250: 0000 803f 0000 803f 0000 803f 0000 803f
00000260: 0000 803f 0000 803f 0000 803f 0000 803f
00000270: 0000 803f 0000 803f 0000 803f 0000 803f
00000280: 0000 803f 0000 803f 0000 803f 0000 803f
00000290: 0000 803f 0000 803f 0000 803f 0000 803f
000002a0: 0000 803f 0000 803f 0000 803f 0000 803f
000002b0: 0000 803f 0000 803f 0000 803f 0000 803f
000002c0: 0000 803f 0000 803f 0000 803f 0000 803f
000002d0: 0000 803f 0000 803f 0000 803f 0000 803f
000002e0: 0000 803f 0000 803f 0000 803f 0000 803f
000002f0: 0000 803f 0000 803f 0000 803f 0000 803f
00000300: 0000 803f 0000 803f 0000 803f 0000 803f
00000310: 0000 803f 0000 803f 0000 803f 0000 803f
00000320: 0000 803f 0000 803f 0000 803f 0000 803f
00000330: 0000 803f 0000 803f 0000 803f 0000 803f
00000340: 0000 803f 0000 803f 0000 803f 0000 803f
00000350: 0000 803f 0000 803f 0000 803f 0000 803f
00000360: 0000 803f 0000 803f 0000 803f 0000 803f
00000370: 0000 803f 0000 803f 0000 803f 0000 803f
00000380: 0000 803f 0000 803f 0000 803f 0000 803f
00000390: 0000 803f 0000 803f 0000 803f 0000 803f
000003a0: 0000 803f 0000 803f 0000 803f 0000 803f
000003b0: 0000 803f 0000 803f 0000 803f 0000 803f
000003c0: 0000 803f 0000 803f 0000 803f 0000 803f
000003d0: 0000 803f 0000 803f 0000 803f 0000 803f
000003e0: 0000 803f 0000 803f 0000 803f 0000 803f
000003f0: 0000 803f 0000 803f 0000 803f 0000 803f

mnn_quant_3_linear_1_weight._prune_mask f4 [10, 50]
1.0 1.0 1.0 1.0 1.0 1.0 1.0 1.0
1.0 1.0 1.0 1.0 1.0 1.0 1.0 1.0
1.0 1.0 1.0 1.0 1.0 1.0 1.0 1.0
1.0 1.0 1.0 1.0 1.0 1.0 1.0 1.0
1.0 1.0 1.0 1.0 1.0 1.0 1.0 1.0
1.0 1.0 1.0 1.0 1.0 1.0 1.0 1.0
1.0 1.0 1.0 1.0 1.0 1.0 1.0 1.0
1.0 1.0 1.0 1.0 1.0 1.0 1.0 1.0
1.0 1.0 1.0 1.0 1.0 1.0 1.0 1.0
1.0 1.0 1.0 1.0 1.0 1.0 1.0 1.0
1.0 1.0 1.0 1.0 1.0 1.0 1.0 1.0
1.0 1.0 1.0 1.0 1.0 1.0 1.0 1.0
1.0 1.0 1.0 1.0 1.0 1.0 1.0 1.0
1.0 1.0 1.0 1.0 1.0 1.0 1.0 1.0
1.0 1.0 1.0 1.0 1.0 1.0 1.0 1.0
1.0 1.0 1.0 1.0 1.0 1.0 1.0 1.0
1.0 1.0 1.0 1.0 1.0 1.0 1.0 1.0
1.0 1.0 1.0 1.0 1.0 1.0 1.0 1.0
1.0 1.0 1.0 1.0 1.0 1.0 1.0 1.0
1.0 1.0 1.0 1.0 1.0 1.0 1.0 1.0
1.0 1.0 1.0 1.0 1.0 1.0 1.0 1.0
1.0 1.0 1.0 1.0 1.0 1.0 1.0 1.0
1.0 1.0 1.0 1.0 1.0 1.0 1.0 1.0
1.0 1.0 1.0 1.0 1.0 1.0 1.0 1.0
1.0 1.0 1.0 1.0 1.0 1.0 1.0 1.0
1.0 1.0 1.0 1.0 1.0 1.0 1.0 1.0
1.0 1.0 1.0 1.0 1.0 1.0 1.0 1.0
1.0 1.0 1.0 1.0 1.0 1.0 1.0 1.0
1.0 1.0 1.0 1.0 1.0 1.0 1.0 1.0
1.0 1.0 1.0 1.0 1.0 1.0 1.0 1.0
1.0 1.0 1.0 1.0 1.0 1.0 1.0 1.0
1.0 1.0 1.0 1.0 1.0 1.0 1.0 1.0
00000000: 0000 803f 0000 803f 0000 803f 0000 803f
00000010: 0000 803f 0000 803f 0000 803f 0000 803f
00000020: 0000 803f 0000 803f 0000 803f 0000 803f
00000030: 0000 803f 0000 803f 0000 803f 0000 803f
00000040: 0000 803f 0000 803f 0000 803f 0000 803f
00000050: 0000 803f 0000 803f 0000 803f 0000 803f
00000060: 0000 803f 0000 803f 0000 803f 0000 803f
00000070: 0000 803f 0000 803f 0000 803f 0000 803f
00000080: 0000 803f 0000 803f 0000 803f 0000 803f
00000090: 0000 803f 0000 803f 0000 803f 0000 803f
000000a0: 0000 803f 0000 803f 0000 803f 0000 803f
000000b0: 0000 803f 0000 803f 0000 803f 0000 803f
000000c0: 0000 803f 0000 803f 0000 803f 0000 803f
000000d0: 0000 803f 0000 803f 0000 803f 0000 803f
000000e0: 0000 803f 0000 803f 0000 803f 0000 803f
000000f0: 0000 803f 0000 803f 0000 803f 0000 803f
00000100: 0000 803f 0000 803f 0000 803f 0000 803f
00000110: 0000 803f 0000 803f 0000 803f 0000 803f
00000120: 0000 803f 0000 803f 0000 803f 0000 803f
00000130: 0000 803f 0000 803f 0000 803f 0000 803f
00000140: 0000 803f 0000 803f 0000 803f 0000 803f
00000150: 0000 803f 0000 803f 0000 803f 0000 803f
00000160: 0000 803f 0000 803f 0000 803f 0000 803f
00000170: 0000 803f 0000 803f 0000 803f 0000 803f
00000180: 0000 803f 0000 803f 0000 803f 0000 803f
00000190: 0000 803f 0000 803f 0000 803f 0000 803f
000001a0: 0000 803f 0000 803f 0000 803f 0000 803f
000001b0: 0000 803f 0000 803f 0000 803f 0000 803f
000001c0: 0000 803f 0000 803f 0000 803f 0000 803f
000001d0: 0000 803f 0000 803f 0000 803f 0000 803f
000001e0: 0000 803f 0000 803f 0000 803f 0000 803f
000001f0: 0000 803f 0000 803f 0000 803f 0000 803f
00000200: 0000 803f 0000 803f 0000 803f 0000 803f
00000210: 0000 803f 0000 803f 0000 803f 0000 803f
00000220: 0000 803f 0000 803f 0000 803f 0000 803f
00000230: 0000 803f 0000 803f 0000 803f 0000 803f
00000240: 0000 803f 0000 803f 0000 803f 0000 803f
00000250: 0000 803f 0000 803f 0000 803f 0000 803f
00000260: 0000 803f 0000 803f 0000 803f 0000 803f
00000270: 0000 803f 0000 803f 0000 803f 0000 803f
00000280: 0000 803f 0000 803f 0000 803f 0000 803f
00000290: 0000 803f 0000 803f 0000 803f 0000 803f
000002a0: 0000 803f 0000 803f 0000 803f 0000 803f
000002b0: 0000 803f 0000 803f 0000 803f 0000 803f
000002c0: 0000 803f 0000 803f 0000 803f 0000 803f
000002d0: 0000 803f 0000 803f 0000 803f 0000 803f
000002e0: 0000 803f 0000 803f 0000 803f 0000 803f
000002f0: 0000 803f 0000 803f 0000 803f 0000 803f
00000300: 0000 803f 0000 803f 0000 803f 0000 803f
00000310: 0000 803f 0000 803f 0000 803f 0000 803f
00000320: 0000 803f 0000 803f 0000 803f 0000 803f
00000330: 0000 803f 0000 803f 0000 803f 0000 803f
00000340: 0000 803f 0000 803f 0000 803f 0000 803f
00000350: 0000 803f 0000 803f 0000 803f 0000 803f
00000360: 0000 803f 0000 803f 0000 803f 0000 803f
00000370: 0000 803f 0000 803f 0000 803f 0000 803f
00000380: 0000 803f 0000 803f 0000 803f 0000 803f
00000390: 0000 803f 0000 803f 0000 803f 0000 803f
000003a0: 0000 803f 0000 803f 0000 803f 0000 803f
000003b0: 0000 803f 0000 803f 0000 803f 0000 803f
000003c0: 0000 803f 0000 803f 0000 803f 0000 803f
000003d0: 0000 803f 0000 803f 0000 803f 0000 803f
000003e0: 0000 803f 0000 803f 0000 803f 0000 803f
000003f0: 0000 803f 0000 803f 0000 803f 0000 803f
