qat_model.pth (torch, 89871 bytes, 8 tensors)

conv1.weight f4 [10, 1, 5, 5]
0	0x3db8295a	0.08992262
1	0xbe353493	-0.17695837
2	0xbe76d499	-0.24104537
3	0xbe260629	-0.16213287
4	0xbea81e73	-0.3283573
5	0x3e335391	0.17512347
6	0xbcdbe1ef	-0.026841132
7	0x3a680187	0.0008850325
8	0xbd3781fb	-0.044801693
9	0xbd8e4c42	-0.06948139
10	0x3e50afe0	0.20379591
11	0x3e57f7ac	0.21090573
12	0x3e865519	0.262368
13	0x3dd82b50	0.10555136
14	0x3dc8152e	0.09769665
15	0x3d4e9e29	0.050443802
16	0x3e3a168d	0.18172665
17	0x3e35b08b	0.17743127
18	0x3ea7a6bc	0.32744396
19	0x3e51214d	0.2042286
20	0xbe141382	-0.14460567
21	0xbe434b18	-0.19071615
22	0xbe192c0d	-0.1495821
23	0xbe25e595	-0.1620086
24	0xbd1a2c59	-0.03763995
25	0x3dbed81a	0.09318562
26	0x3e9926f6	0.29912537
27	0x3e085300	0.13312912
28	0xbebc9252	-0.36830384
29	0xbdfeee88	-0.1244784
30	0x3e46c3b2	0.1941059
31	0x3ecaba52	0.39595276
32	0x3deee32c	0.11664423
33	0xbec161c0	-0.3776989
34	0xbebeb32b	-0.3724607
35	0x3df995b5	0.121867575
36	0x3edca19d	0.4309205
37	0xbda79c30	-0.08184087
38	0xbe0d422e	-0.13794777
39	0xbe89de15	-0.26927248
40	0x3ebfc7f5	0.37457243
41	0x3dfa5a08	0.12224203
42	0x3e1e4d78	0.1545924
43	0xbdd16d29	-0.10225899
44	0xbe4212d2	-0.18952492
45	0x3e77dfb5	0.24206431
46	0x3d93c33c	0.072149724
47	0x3e22782b	0.15866153
48	0xbd0dbe74	-0.03460546
49	0xbcb6f84f	-0.0223352
50	0xbea9db18	-0.33174968
51	0xbe26d0dc	-0.16290611
52	0x3e0eaec5	0.13933857
53	0x3d9c87d8	0.07643098
54	0x3ea21859	0.316592
55	0x3c1151bf	0.008869587
56	0xbcaad411	-0.020853074
57	0x3d618a54	0.05506356
58	0x3ea4cffd	0.32189932
59	0x3e0a69be	0.135169
60	0xbe2aeac0	-0.16691113
61	0x3e674e92	0.22588566
62	0x3ebdcf07	0.37072012
63	0x3eabd4e9	0.33560875
64	0xbe2aaacb	-0.16666715
65	0x3d219c1d	0.03945552
66	0x3e0f50d2	0.13995674
67	0x3e4df85b	0.20114271
68	0xbe0875e9	-0.13326229
69	0xbe850249	-0.25978306
70	0x3e20c677	0.15700708
71	0x3cf58e6d	0.02997514
72	0x3dd46295	0.103703655
73	0xbd9a3e46	-0.07531409
74	0xbd88f187	-0.06686693
75	0x3e11e846	0.14248762
76	0x3e8675ae	0.26261657
77	0x3e96eac6	0.29475993
78	0xbc5002b0	-0.012695953
79	0x3e69e12c	0.22839803
80	0xbe17ce2f	-0.14824747
81	0xbd88fb59	-0.06688566
82	0x3dda4834	0.10658303
83	0x3d98a577	0.07453435
84	0x3e58ed8c	0.21184367
85	0xbe1e7212	-0.15473202
86	0xbe547213	-0.20746641
87	0x3d89b10b	0.067232214
88	0xbd92bdc4	-0.07165101
89	0x3dd79f06	0.10528378
90	0x3d02e650	0.031957924
91	0xbe7a3936	-0.24435887
92	0xbe1221a2	-0.14270642
93	0xbda98ae4	-0.082784444
94	0xbe689317	-0.2271236
95	0xbda39f99	-0.07989425
96	0x3cabd1b3	0.020974016
97	0xbdda71e9	-0.10666258
98	0xbe4587f8	-0.19290149
99	0xbe1a5073	-0.15069751
100	0x3e9c544a	0.30533057
101	0x3d2867b8	0.04111454
102	0x3e24062d	0.16017981
103	0x3d59b45d	0.053150523
104	0xbe5f904c	-0.21832389
105	0xbdb18fae	-0.08669983
106	0x3ebec7e2	0.37261873
107	0x3e30a0f6	0.17248902
108	0x3e2dd02a	0.1697394
109	0x3d22e0e0	0.03976524
110	0x3e3a68b5	0.18204005
111	0x3efed32b	0.49770483
112	0x3ee4fb97	0.44723198
113	0xbd08b72c	-0.03337781
114	0x3e030692	0.12795475
115	0x3e5a2086	0.21301469
116	0x3eb1959b	0.34684452
117	0x3e733cd3	0.23753671
118	0xbd345577	-0.044026818
119	0xbcacb7a5	-0.021083662
120	0xbe76bc06	-0.24095163
121	0xbcf77ed4	-0.030211844
122	0x3e3f51ee	0.18683597
123	0xbda98592	-0.0827743
124	0x3e735d8a	0.23766151
125	0xbe36cc17	-0.17851292
126	0xbe94efa0	-0.2908907
127	0xbdb8c04d	-0.090210535
128	0x3e89cb62	0.2691298
129	0x3ecc4337	0.3989503
130	0xbe10bec8	-0.14135277
131	0x3d768648	0.060186654
132	0x3e96240d	0.2932438
133	0x3ec8a1b3	0.39185867
134	0x3e8a9b5b	0.27071652
135	0x3e4b5614	0.19857055
136	0x3e3a9486	0.1822072
137	0x3e0d9fde	0.13830516
138	0x3cce47a1	0.02518064
139	0xbe067781	-0.13131525
140	0xbd3af203	-0.045640957
141	0xbc947973	-0.018124318
142	0xbdeb10f8	-0.11477846
143	0x3e2cf4fd	0.1689033
144	0x3e00668b	0.12539117
145	0xbd7781a5	-0.060426373
146	0x3d0cb18c	0.03434901
147	0x3d70541f	0.058673974
148	0x3e398b3f	0.18119524
149	0x3e5c1f59	0.21496333
150	0xbdd900c7	-0.105958514
151	0x3e21d0a0	0.1580224
152	0xbd127352	-0.03575451
153	0xbc5406e0	-0.012941092
154	0xbe5e7977	-0.21726023
155	0xbe3e7875	-0.18600638
156	0xbe2af87f	-0.16696356
157	0xbdd62091	-0.1045543
158	0x3e07f009	0.1327516
159	0xbdbc6f1d	-0.09200881
160	0xbe4458e8	-0.1917454
161	0x3d70d3d3	0.05879576
162	0x3da0911a	0.07840176
163	0x3df19ac0	0.11797094
164	0xbe1fd98f	-0.15610336
165	0x3d4e8210	0.050417006
166	0xbd50aa75	-0.05094381
167	0xbc2cc4ed	-0.010544998
168	0xbe1c2d1e	-0.15251586
169	0xbdaf4add	-0.08559201
170	0xbbf0a391	-0.0073437174
171	0x3e116d15	0.14201768
172	0x3de8738f	0.11350166
173	0x3e193ccd	0.149646
174	0x3ea1fe77	0.31639454
175	0x3dcbcf12	0.09951605
176	0x3dc70139	0.0971703
177	0x3ca7a56e	0.020464625
178	0xbe263018	-0.16229284
179	0x3e116698	0.14199293
180	0xbe285dc0	-0.16442013
181	0xbdef1fa6	-0.11675958
182	0xbe902cfd	-0.28159323
183	0xbe686078	-0.2269305
184	0xbea10250	-0.31447077
185	0x3e075de1	0.13219406
186	0xbe494d6e	-0.19658443
187	0xbe72cf75	-0.23711951
188	0xbe2be51b	-0.16786616
189	0xbe6d61e5	-0.23181875
190	0x3e358f54	0.17730457
191	0x3dc95e7d	0.09832475
192	0x3d61de43	0.055143606
193	0x3dc7265a	0.09724112
194	0x3e8007e9	0.25006035
195	0xbb6784a2	-0.0035326858
196	0x3ebc3e7c	0.36766422
197	0x3ee272e9	0.44228294
198	0x3ed789f0	0.42097425
199	0x3d2978c4	0.041374937
200	0x3db50e53	0.08840623
201	0xbdf20036	-0.118164465
202	0x3e6ea2bc	0.23304266
203	0x3b7285af	0.003700595
204	0x3e3c8e17	0.18413578
205	0x3d0fd690	0.035116732
206	0x3cf16c30	0.029470533
207	0x3dd7b5d8	0.10532731
208	0x3e517dd0	0.2045815
209	0x3e7d3f0d	0.24731083
210	0x3ca448cf	0.02005425
211	0x3d6d5cd4	0.057949856
212	0xbe19f0fe	-0.15033337
213	0x3e863635	0.26213232
214	0x3eae0f51	0.3399606
215	0x3d955af9	0.07292742
216	0x3d37f878	0.044914693
217	0xbe7904b5	-0.24318202
218	0xbdcc8203	-0.09985735
219	0x3e830a44	0.2559377
220	0xbeb3be6e	-0.35106224
221	0xbcdb9c79	-0.02680801
222	0xbeaba717	-0.33525917
223	0xbe8d419a	-0.27589113
224	0x3d800bd8	0.06252259
225	0xbdeb99b7	-0.11503928
226	0xbab2a340	-0.0013628975
227	0x3e9125d3	0.2834917
228	0x3eb58895	0.35455766
229	0x3eb4c5be	0.35307115
230	0xbd801b31	-0.06255186
231	0xbe27bf61	-0.16381599
232	0x3e9e30b8	0.30896544
233	0x3e0ea4ec	0.139301
234	0x3d867ab6	0.06566374
235	0xbc974a09	-0.01846792
236	0xbe4495fd	-0.19197841
237	0x3e1dca6f	0.15409254
238	0x3e55ce58	0.20879495
239	0xbdb9fef7	-0.09081834
240	0xbe6fb30e	-0.23408148
241	0xbdbfaa25	-0.09358624
242	0x3cfb27b9	0.03065859
243	0xbc16ac18	-0.009196304
244	0xbde9aceb	-0.114099346
245	0xbdc8debb	-0.098081075
246	0xbe9c7d4d	-0.30564347
247	0xbe73ebb7	-0.23820387
248	0xbe33886c	-0.1753251
249	0x3de722e3	0.11285951

conv1.bias f4 [10]
0	0x3e1f4438	0.15553367
1	0xbda87479	-0.082253404
2	0x3d243600	0.04009056
3	0x3e0d3dc6	0.13793096
4	0x3e519b69	0.2046944
5	0x3c3af5ca	0.01141114
6	0x3e064763	0.1311317
7	0x3e07ce80	0.13262367
8	0x3d6e93aa	0.058246292
9	0x3d816562	0.06318165

conv2.weight f4 [20, 10, 5, 5]
0	0x3d302cce	0.04301148
1	0x3ccfc4e4	0.02536244
2	0xbde4cf8d	-0.111724
3	0x3bc57966	0.0060264347
4	0x3c8408f9	0.01611756
5	0xbd752da0	-0.059857965
6	0xbc17f535	-0.0092747705
7	0xbdb7c2d5	-0.08972708
8	0x3d80153a	0.06254049
9	0x3c303abb	0.01075619
10	0x3d06d735	0.03292008
11	0x3cfa4612	0.03055099
12	0x3cf74a04	0.03018666
13	0x3da417e1	0.08012367
14	0x3cc5dd2a	0.02415331
15	0xbd6aea5b	-0.057352405
16	0xbce0a2c2	-0.027421359
17	0x3d3a9d27	0.04556003
18	0x3c2fe84a	0.010736534
19	0x3c8949ad	0.016758764
20	0xbac35df6	-0.0014905322
21	0x3ce2de88	0.027694002
22	0x3d989e49	0.074520655
23	0x3d3848d6	0.044991337
24	0xbc93d691	-0.01804665
25	0xbc9e3525	-0.01931245
26	0xbdac27c5	-0.08406023
27	0xba29b08c	-0.0006473146
28	0xbc9f8850	-0.019474179
29	0x3d2538be	0.040337317
30	0xbca95051	-0.02066818
31	0xbd946dca	-0.07247503
32	0x3d7b50df	0.06135642
33	0x3d24ae54	0.040205315
34	0x3c1fec01	0.009760858
35	0xbd84a5c8	-0.06476933
36	0xbb88cfe2	-0.004175172
37	0x3cb613a6	0.022226166
38	0xbd4b37cc	-0.04961376
39	0xbd7bf674	-0.061514333
40	0xbd00f018	-0.03147897
41	0x3cacff07	0.0211177
42	0x3c3f3343	0.011669937
43	0xbd9c2c01	-0.076255806
44	0xbdbac858	-0.09120244
45	0xbbd4c4ec	-0.0064932015
46	0x3c1ffc19	0.009764695
47	0xbc54fcd9	-0.012999737
48	0xbdc01ee4	-0.09380892
49	0xbcd5bd79	-0.026091324
50	0x3aa8aaad	0.0012868248
51	0xbcd6559e	-0.026163872
52	0x3bcf5fcd	0.006328559
53	0x3d13d52a	0.03609196
54	0x3da4cecc	0.08047256
55	0xbdae6d92	-0.08516993
56	0x3c81c8f9	0.015842902
57	0x3da17387	0.07883363
58	0x3d85e5a7	0.06537943
59	0x3a8192ac	0.000988563
60	0x3b880182	0.0041505704
61	0x3d370a42	0.044687517
62	0x3d14686e	0.036232404
63	0xba94f8ee	-0.0011365691
64	0xbbda58c9	-0.006663416
65	0xbd12022f	-0.035646614
66	0xbd543b2b	-0.05181424
67	0xbd05fc5c	-0.03271137
68	0xbda8edf6	-0.082485124
69	0xbd23269c	-0.039831743
70	0x3cfae226	0.030625414
71	0xbd0d873d	-0.0345528
72	0xbd35b221	-0.04435933
73	0xbd0d67f4	-0.034522966
74	0xbc28ea67	-0.010309792
75	0x3abaa500	0.0014239848
76	0xbd64641e	-0.05575954
77	0xbd6a827d	-0.05725335
78	0xbc8f5821	-0.017498078
79	0xbc02b434	-0.007977534
80	0xbd03c22a	-0.03216759
81	0xbd50c28a	-0.050966777
82	0xbd8714b6	-0.06595747
83	0x3d27c272	0.040956922
84	0xbc20cb97	-0.009814165
85	0xbca4f2cf	-0.020135311
86	0xbce69445	-0.028146872
87	0xbd20b157	-0.039231624
88	0xbd6f1980	-0.058373928
89	0xbca08dc5	-0.019598851
90	0x3da742ce	0.08167039
91	0x3d5d1cc2	0.053982504
92	0x3adc6672	0.0016815199
93	0xbc1f3bec	-0.009718876
94	0x3d955e97	0.07293432
95	0x3d5283d6	0.05139526
96	0x3dda6fd8	0.10665864
97	0x3d9b306e	0.075775966
98	0x3d8b26aa	0.06794484
99	0x3c84e024	0.01622016
100	0x3c04da2d	0.008108658
101	0xbdf754d6	-0.12076728
102	0x3c8d98f0	0.01728484
103	0x3d2fbf69	0.042907152
104	0x3dc2f6d4	0.09519735
105	0xbd453988	-0.04815057
106	0xbdd37bdf	-0.10326361
107	0xbd0cc728	-0.034369618
108	0x3d48e5bf	0.049047228
109	0x3b8f105a	0.004365963
110	0xbd0ab4b7	-0.03386375
111	0x3dace2f3	0.08441725
112	0x3d613bf0	0.0549888
113	0xbc83b2ea	-0.016076524
114	0x3bf26ce9	0.007398237
115	0xbbcf6c1c	-0.0063300263
116	0xbd271b2a	-0.04079739
117	0x3d2ba70c	0.041907355
118	0xbc05e504	-0.008172277
119	0xbd89f20b	-0.06735619
120	0xbbc8544f	-0.006113566
121	0xbdea5f75	-0.11443988
122	0xbd9d594f	-0.0768305
123	0xbd281a81	-0.0410409
124	0xbd8f5b6d	-0.0699986
125	0x3cba8f14	0.022773303
126	0x3d2d2ad9	0.04227719
127	0x3dc1a714	0.09455696
128	0x3d8fbb35	0.07018129
129	0xbca7c9f6	-0.020482045
130	0xbb73a048	-0.0037174392
131	0x3d8ce1b3	0.06878986
132	0x3d43e94a	0.047829904
133	0x3bab2105	0.005222442
134	0x3cea1d9e	0.028578576
135	0x3ce1e13a	0.027573217
136	0x3de5c115	0.11218468
137	0x3d89cff8	0.0672912
138	0x3d99c96d	0.07509122
139	0x3b0cdf1b	0.0021495286
140	0xbd4b602c	-0.049652264
141	0x3d53bb61	0.05169237
142	0xbaf6eacc	-0.0018838285
143	0xbd831cf5	-0.064020075
144	0xbd81868a	-0.063244894
145	0xbdc17a5c	-0.09447166
146	0xbdc5d0f1	-0.09658993
147	0xbdba74df	-0.09104323
148	0x3c4137d2	0.011793094
149	0xbd742559	-0.05960593
150	0xbc8e126e	-0.017342772
151	0xbb858a02	-0.0040752897
152	0x3cc18168	0.023621276
153	0xbd04b965	-0.03240337
154	0x3d126717	0.035742845
155	0x3d4b2c91	0.04960305
156	0xbd1f302e	-0.038864307
157	0x3d9ddd5d	0.07708237
158	0xbcc51ea4	-0.024062462
159	0xbc84d1fe	-0.016213413
160	0xbd5edb3f	-0.054408308
161	0x3d896369	0.06708414
162	0x3cc83665	0.02444
163	0x3d31ab00	0.04337597
164	0xbc8b889d	-0.017032916
165	0x3cb7490b	0.022373697
166	0xbd118f93	-0.035537314
167	0xbd320e48	-0.04347065
168	0x3c0bf5cc	0.008542489
169	0xbcd77251	-0.026299627
170	0x3cd5ec24	0.026113577
171	0xbc6b1bc5	-0.0143498825
172	0x3ca76af5	0.020436743
173	0x3cb70e8f	0.02234581
174	0xbc228dec	-0.009921532
175	0xbd66c6ce	-0.05634194
176	0x3c95e060	0.018295467
177	0xbd85ed14	-0.0653936
178	0xbc056b1a	-0.008143211
179	0x3da77774	0.08177081
180	0xbcbe5473	-0.023233628
181	0x3daab1d1	0.08334697
182	0xbdb2a74b	-0.08723315
183	0x3d4c3e82	0.0498643
184	0x3d62522c	0.055254146
185	0xbc43e713	-0.011956948
186	0xbd69b5fa	-0.057058312
187	0x3d32de29	0.0436689
188	0x3bfbd19f	0.007684901
189	0xbc52aebf	-0.0128590455
190	0x3cce4716	0.02518038
191	0x3ca0262f	0.019549457
192	0x3df48194	0.119387776
193	0x3dd3f29a	0.10349007
194	0x3dee7f99	0.11645431
195	0x3dce4c37	0.100731306
196	0x3c96fce3	0.018431133
197	0xbb837a32	-0.0040123696
198	0x3d5585af	0.052129444
199	0xbd6cb418	-0.05778894
200	0x3be7fe1d	0.007079853
201	0xbd972302	-0.07379724
202	0x3ce8590d	0.028362775
203	0x3cab2abf	0.020894406
204	0xbd33698d	-0.043801833
205	0x3b98c8c6	0.004662606
206	0xbd927867	-0.07151871
207	0xbd2a59cf	-0.041589554
208	0x3ce5de4f	0.028060107
209	0xbc007a29	-0.007841625
210	0x3cb0673d	0.021533603
211	0xbc0d6aac	-0.00863139
212	0x3d8c9c09	0.06865699
213	0x3d84c9e9	0.06483824
214	0x3da0b28d	0.07846556
215	0x3d50cce1	0.050976638
216	0xbd305aad	-0.043055225
217	0x3cffdcba	0.03123318
218	0xbc119d0c	-0.008887541
219	0xbdab22e6	-0.08356266
220	0xbd5a562c	-0.053304836
221	0xbd917af0	-0.071035266
222	0x3ca47fc1	0.020080449
223	0xbc711942	-0.014715495
224	0x3b96b599	0.004599285
225	0x39251bea	0.00015746025
226	0xbd9ba363	-0.07599523
227	0x3d88f8f5	0.0668811
228	0x3cf7181e	0.030162867
229	0x3b7ad2eb	0.003827269
230	0x3bef1de5	0.007297265
231	0xbd02aa12	-0.031900473
232	0x3c5325d7	0.01288744
233	0xbd9451df	-0.07242178
234	0xbbeee7b8	-0.0072908066
235	0x3c997be2	0.01873583
236	0x3d785a90	0.060633242
237	0xbcb7aa08	-0.022419944
238	0xbc26bdf4	-0.010177124
239	0x3d27c0e3	0.040955435
240	0xbcabe9f7	-0.020985587
241	0x3bf521d6	0.00748084
242	0xbc89f392	-0.016839776
243	0xbbb448c7	-0.00550184
244	0xbcc7f0b2	-0.024406765
245	0xbdb65622	-0.08903147
246	0xbd802d31	-0.062586196
247	0xbd6c6a8b	-0.057718795
248	0x3ccc0f1a	0.024909545
249	0xbd69cf75	-0.057082612
250	0xbd2643c2	-0.040591963
251	0x3ce55c37	0.027998073
252	0xbd423c17	-0.047420587
253	0x3d3e7a7e	0.046503536
254	0x3d57fbc2	0.05273033
255	0xbd3fc163	-0.046815287

conv2.bias f4 [20]
0	0x3d1328e3	0.035927664
1	0xbc3bf180	-0.011471152
2	0x3d35b910	0.044365942
3	0xbcb16b40	-0.021657586
4	0xbc570cc4	-0.013125602
5	0xbc0b010f	-0.008484139
6	0xbd4c75e1	-0.049917106
7	0xbc95305c	-0.018211536
8	0xbd554492	-0.052067347
9	0xbc92a9a0	-0.01790315
10	0x3aa41f4d	0.0012521535
11	0xbd6aafbe	-0.057296507
12	0xbd68dae1	-0.056849364
13	0x3d4c0b7e	0.049815647
14	0xbd213c6d	-0.039364267
15	0xbd9ae33b	-0.07562872
16	0xbc079272	-0.008274661
17	0xbd91a0b3	-0.07110729
18	0xbd815349	-0.063147135
19	0x3c5ee4b9	0.013604336

fc1.weight f4 [50, 320]
0	0xbd7a339e	-0.061084382
1	0xb9eb4cfd	-0.00044880054
2	0x3c717e52	0.01473959
3	0xbcbb3b47	-0.022855414
4	0x3d251df0	0.040311754
5	0xbcf0a679	-0.029376255
6	0x3cb40639	0.021975623
7	0xbcc4906d	-0.023994649
8	0xbba635e6	-0.005072343
9	0x3c866ed0	0.016410261
10	0x3d104430	0.03522128
11	0x3d6e863d	0.05823349
12	0x3d15f97a	0.036614873
13	0xbdc9fbfb	-0.098625146
14	0x3bb71c1b	0.005588067
15	0x3cd95c61	0.026533308
16	0xbd804afb	-0.062643014
17	0x3d432b38	0.04764864
18	0x3908beac	0.00013041002
19	0xbb06009c	-0.002044714
20	0x3cda8318	0.026673838
21	0xbbf0bb79	-0.007346567
22	0x3d19e0d5	0.037567932
23	0xbc6a3ccf	-0.014296724
24	0xbc6014a5	-0.013676797
25	0xbd9bb489	-0.07602794
26	0x3d13bd8d	0.03606944
27	0x3cdaefd6	0.02672569
28	0xbc233962	-0.009962412
29	0xbd1a6413	-0.037693094
30	0x3cc0a128	0.023514345
31	0x3d128a08	0.035776168
32	0xbd22991b	-0.039696794
33	0x3c766704	0.015039209
34	0xbcb38ab6	-0.021916728
35	0xbd958730	-0.073011756
36	0xba3ea432	-0.0007272392
37	0xb9ee6141	-0.00045467357
38	0x3ce62d9e	0.028097924
39	0x3d84f16d	0.06491361
40	0x3d23c88b	0.039986175
41	0xbc8df5bb	-0.017329087
42	0xbcb08f89	-0.021552818
43	0xbcf02471	-0.029314252
44	0xbb8be03a	-0.0042686732
45	0xbd840bbb	-0.0644755
46	0x3d4e18f4	0.050316766
47	0xbd30632c	-0.043063328
48	0xbc1511c9	-0.009098479
49	0x3ca69428	0.020334318
50	0x3d42e5d8	0.047582477
51	0x3d8205fd	0.063487984
52	0xbd57aa2b	-0.05265252
53	0xbb01eac2	-0.0019823764
54	0xbd7c209f	-0.061554547
55	0x3c5fdd02	0.013663532
56	0xbd2c3ef9	-0.042052243
57	0xbd8b8659	-0.06812734
58	0xbd83a239	-0.06427426
59	0xbda5e5c9	-0.08100469
60	0xbd8332e2	-0.064061895
61	0xbd353559	-0.04424033
62	0x3c872baa	0.016500313
63	0xbdba72c2	-0.091039196
64	0x3b2b1963	0.002610766
65	0xbc012213	-0.007881659
66	0xbbff845f	-0.0077977623
67	0xbcb7eecc	-0.022452734
68	0x3b9a42ce	0.004707671
69	0xbc82022e	-0.01587018
70	0xbd96426f	-0.0733689
71	0xbcfdd87d	-0.030987019
72	0x3c2586aa	0.010102907
73	0xbd24fe7c	-0.040281758
74	0x3cba06e4	0.022708364
75	0x3d89d2c9	0.06729657
76	0x3d34d069	0.044144068
77	0x3d13c3f0	0.036075532
78	0x3ccead66	0.025229167
79	0x3c0a52f6	0.008442631
80	0xbcec7773	-0.028865552
81	0x3d9c4984	0.076312095
82	0xbcd3c575	-0.02585099
83	0xbde1849f	-0.110116236
84	0xbb86ed61	-0.0041176532
85	0xbc590e3d	-0.013248024
86	0xbd24a8de	-0.040200107
87	0xbbb16b47	-0.0054144
88	0xbc77b618	-0.015119098
89	0x3c5dceb2	0.0135380495
90	0x3c8ca7e1	0.017169895
91	0x3c75890b	0.014986287
92	0x3bb1d0c9	0.0054265005
93	0x3d8202e6	0.06348209
94	0x3da87344	0.0822511
95	0xb9b58d63	-0.00034628352
96	0xbb35bf1d	-0.002773232
97	0x3d02f275	0.031969506
98	0xbcab5792	-0.02091578
99	0xbcaf8cff	-0.021429537
100	0x3cef7a84	0.029233225
101	0xbc0697a7	-0.008214868
102	0xbd04e26f	-0.032442506
103	0x3d97816f	0.073977344
104	0x3c0b629f	0.0085074
105	0xbd4b083d	-0.049568404
106	0x3d5c0c10	0.05372244
107	0x3d85b713	0.06529059
108	0x3d75e61c	0.060033903
109	0x3c87cac8	0.016576186
110	0x3d107bb2	0.035274215
111	0x3d3a7ade	0.04552733
112	0xbb82c837	-0.0039911526
113	0xbc951f50	-0.018203408
114	0x3d7d6036	0.061859332
115	0xbd46502e	-0.04841631
116	0xbbf6e5d4	-0.007534722
117	0xbccace70	-0.02475664
118	0xbd383217	-0.044969644
119	0x3d5fb728	0.05461803
120	0x3ca1a34a	0.019731183
121	0xbb1cec01	-0.002394438
122	0xbd8e58c9	-0.06950528
123	0x3d2d46b4	0.042303756
124	0x3c0aadf2	0.008464323
125	0xbd13a72e	-0.036048107
126	0xbbbc12a8	-0.0057395287
127	0x3cb5ed94	0.022208013
128	0xbd895b8b	-0.067069136
129	0xbc148e66	-0.009067154
130	0x3d1be66c	0.038061544
131	0xbcf01110	-0.029305011
132	0xbc5753d6	-0.013142547
133	0x3c8b258b	0.016985675
134	0x3c9dd3fe	0.019266125
135	0x3cb37710	0.02190736
136	0x3d0a6b01	0.033793453
137	0xbca7e0c3	-0.020492917
138	0xbca500f0	-0.020142049
139	0x3cb458e4	0.022015043
140	0xbaa22ce5	-0.0012372999
141	0x3cd0b848	0.025478497
142	0xbd22ea28	-0.03977409
143	0xbd0bb95b	-0.034112316
144	0xbc99801d	-0.018737847
145	0xbd2c26b0	-0.042029083
146	0xbd87e705	-0.0663586
147	0xbc0f3d10	-0.008742586
148	0x3d1298ec	0.03579037
149	0xbc64ff18	-0.013976835
150	0xbcb18a9c	-0.02167254
151	0xbd9293b9	-0.07157082
152	0x3caac7a9	0.020847159
153	0xbb8f1182	-0.0043661008
154	0xbcb6b21d	-0.022301728
155	0x3d9922de	0.074773535
156	0x3d8e7898	0.06956595
157	0x3d05d4dc	0.0326737
158	0x3cea5f5d	0.028609926
159	0x3cf5cbfa	0.03000449
160	0x3c88bacd	0.016690636
161	0xbc68df63	-0.014213416
162	0xbd98cada	-0.07460566
163	0x3cdc361f	0.026881276
164	0x3d002ab0	0.03129071
165	0x3be4c62d	0.006981632
166	0x3d2576de	0.040396564
167	0x3cf42f04	0.029807575
168	0xbcacf920	-0.021114886
169	0x3c2092dd	0.00980064
170	0xbc13968a	-0.009008059
171	0x3d606a6e	0.054789
172	0x3d7e6cbb	0.062115412
173	0x3d0afa4f	0.03393012
174	0x3d88bfdb	0.066772185
175	0xbc9bcbbf	-0.019018052
176	0xbd0582b4	-0.03259535
177	0xbe02458d	-0.12721844
178	0xbdb07648	-0.0861631
179	0xbdb9fced	-0.09081445
180	0x3c9abe7b	0.018889656
181	0x3d01b999	0.03167114
182	0x3a00f520	0.0004919339
183	0xbd9b2b93	-0.075766705
184	0x3c5a0499	0.01330676
185	0xbd09429f	-0.0335108
186	0xbc4346b0	-0.011918709
187	0x3c15847a	0.009125823
188	0x3d33f759	0.04393706
189	0x3d737fea	0.05944816
190	0x3bed21fa	0.0072367163
191	0x3d83c9d6	0.064349815
192	0xbceca508	-0.028887287
193	0x3c9cf4b0	0.019159645
194	0xbc7c36bc	-0.015393909
195	0x3c0f9909	0.008764514
196	0x3c3b3d82	0.011428239
197	0x3cfaa57d	0.03059649
198	0x3c893492	0.0167487
199	0x3c877c18	0.016538665
200	0x3bb2fa6a	0.0054619806
201	0xbda96d8c	-0.082728475
202	0xbcac2130	-0.021011919
203	0x3c31d847	0.010854787
204	0x3c34c4bc	0.011033233
205	0xbc763e9a	-0.015029574
206	0x3c57d5d7	0.013173542
207	0xbcd4e9f9	-0.025990473
208	0xbbcaa116	-0.0061837537
209	0x3d9dd445	0.07706503
210	0x3d64f643	0.055898916
211	0x3cedf89c	0.02904921
212	0x3b259490	0.0025265552
213	0xbd64ad28	-0.055829197
214	0xbc85eb66	-0.016347598
215	0xbcda1244	-0.026620038
216	0xbdd9c108	-0.10632521
217	0x3c55c037	0.013046316
218	0xbc926d2c	-0.017874323
219	0xbdb40172	-0.08789338
220	0xbe03a71d	-0.12856717
221	0x3d0d1343	0.034442198
222	0x3cda9018	0.026680037
223	0xbd89ecaa	-0.06734593
224	0x3c9df881	0.019283535
225	0xbd10decf	-0.035368737
226	0xbde17561	-0.110087164
227	0xbde2a52e	-0.11066662
228	0x3aaf7a22	0.0013387839
229	0xbd855a96	-0.065114185
230	0xbd8068d9	-0.06269998
231	0x3b88ae27	0.004171151
232	0xbbaeb1ef	-0.00533127
233	0x3d81f0e3	0.063447736
234	0x3cd21d3f	0.025648711
235	0x3c67ddd4	0.014152009
236	0x3d2dec5a	0.04246173
237	0x3d15ded7	0.03658947
238	0x3cb751ce	0.022377875
239	0x3d87e484	0.06635383
240	0x3cc2190d	0.023693586
241	0x3d84fc75	0.06493465
242	0xbcec57ec	-0.028850518
243	0xbd9805c3	-0.07422974
244	0xbd3760a8	-0.044769913
245	0xbca90c59	-0.02063577
246	0x3bf041ad	0.007332048
247	0x3dc9dcf0	0.098565936
248	0x3c8378d8	0.016048834
249	0xbbfd7513	-0.0077349036
250	0x3d236588	0.03989175
251	0xbb0887ae	-0.0020832825
252	0x3d4413c2	0.047870405
253	0xbd1f3f63	-0.03887881
254	0xbd254c71	-0.040356103
255	0xbd990dbe	-0.07473324

fc1.bias f4 [50]
0	0x3d66f1b2	0.056382842
1	0x3d32f13f	0.0436871
2	0x3b1d3969	0.0023990518
3	0xba653c8f	-0.00087446807
4	0x3cbdefaf	0.02318558
5	0xbbe06cc1	-0.006848902
6	0x3b162cd0	0.0022914894
7	0xbcb99fdc	-0.022659235
8	0x3cde6c38	0.027151212
9	0x3c1ab788	0.009443171
10	0x3d007e11	0.031370226
11	0x3d6dff13	0.058104586
12	0xbc9e860a	-0.019351024
13	0x3989e9ee	0.00026304967
14	0x3bd8fdce	0.0066220528
15	0xbd1a8bb9	-0.037730906
16	0x3d92d2be	0.07169102
17	0x3cf0b762	0.029384319
18	0x3d9aacb1	0.075524695
19	0xbca14c05	-0.01968957
20	0x3cf712a3	0.030160254
21	0x3cd79647	0.026316775
22	0xbce5beb0	-0.028045028
23	0x3d49c200	0.04925728
24	0x3d516403	0.05112077
25	0xbb06d0a3	-0.0020571135
26	0x3dab45bb	0.083629094
27	0xbc78ec0e	-0.015192999
28	0xbcfcac76	-0.030843955
29	0xbd0421b3	-0.0322587
30	0xbc99d394	-0.018777646
31	0x3d20e7c0	0.039283514
32	0x3c39320b	0.011303435
33	0xbcdf825c	-0.02728384
34	0xbd13eb7f	-0.03611326
35	0x3db751fc	0.08951184
36	0x3c8925cb	0.016741654
37	0xbd6018ca	-0.05471114
38	0x3d048d65	0.032361407
39	0xbc94335c	-0.018090896
40	0x3ca5d23b	0.020241847
41	0x3da18364	0.07886389
42	0x3d3a21ed	0.04544251
43	0xbd137bd3	-0.03600676
44	0xbc8488ac	-0.016178451
45	0x3d04e312	0.032443114
46	0xbd20bdd5	-0.039243538
47	0xbd42fb2f	-0.04760283
48	0x3d6e7d84	0.05822517
49	0x3d1ad828	0.0378038

fc2.weight f4 [10, 50]
0	0x3e4a7779	0.19772138
1	0xbe053a2c	-0.13010472
2	0x3e2b8177	0.16748606
3	0x3db172c7	0.0866447
4	0xbe173679	-0.14766873
5	0xbc38d1f8	-0.011280529
6	0xbe562219	-0.20911445
7	0xbe17ef42	-0.14837363
8	0xbdc73e63	-0.09728696
9	0xbe22b03b	-0.15887539
10	0xbe7a48e5	-0.2444187
11	0xbe08c0aa	-0.13354746
12	0xbde96a0c	-0.1139718
13	0x3dfa771d	0.1222975
14	0x3e7276f1	0.23678185
15	0x3e1c14aa	0.15242258
16	0xbd09f4c9	-0.03368071
17	0x3e60a277	0.21936975
18	0x3e4aeeb2	0.19817618
19	0xbe0f894c	-0.14017218
20	0xbdcf79e3	-0.1013067
21	0xbe1da6a3	-0.15395598
22	0xbdc07c23	-0.09398677
23	0xbe5e9a1c	-0.21738476
24	0xbe103306	-0.14081964
25	0xbe6f2713	-0.2335475
26	0xbe61e2a5	-0.22059114
27	0xbe6f41a8	-0.2336489
28	0x3d521bc8	0.051296026
29	0x3e97d17d	0.29652014
30	0xbe2a23bf	-0.16615199
31	0xbdf1fcbc	-0.118157834
32	0x3e3f4dda	0.18682042
33	0x3df70625	0.12061719
34	0xbe0d4064	-0.13794094
35	0x3e37c200	0.17945099
36	0x3e201298	0.15632093
37	0x3dc82c11	0.0977403
38	0x3de00625	0.10938672
39	0xbe27a1dc	-0.16370338
40	0xbe05077b	-0.12991135
41	0xbe443977	-0.19162546
42	0x3d8335ac	0.064067215
43	0xbe05c6fc	-0.13064188
44	0x3dbfb442	0.09360553
45	0x3e73cc97	0.23808514
46	0xbd88d446	-0.06681113
47	0xbd3bcbbe	-0.0458486
48	0xbd3881c9	-0.045045648
49	0x3de229a8	0.110431015
50	0xbdb39f5d	-0.087706305
51	0x3e1d16a2	0.15340665
52	0xbe43fd15	-0.19139512
53	0x3d5ff284	0.05467464
54	0x3e239ab2	0.1597698
55	0x3e270e32	0.16314009
56	0xbe5bd6e3	-0.21468692
57	0x3d97fc81	0.07421208
58	0xbb83ffaf	-0.0040282826
59	0xbe3b435f	-0.18287419
60	0x3e2ffe5a	0.17186871
61	0x3e740525	0.23830087
62	0xbe0fed59	-0.14055385
63	0xbe557bf4	-0.20848066
64	0xbd0e91aa	-0.034806885
65	0xbe7fcf4b	-0.2498142
66	0x3e1ce55e	0.15321872
67	0xbd101a24	-0.03518118
68	0xbe7cf8e2	-0.24704316
69	0x3c1b4263	0.009476277
70	0xbe2130c1	-0.15741254
71	0xbce92154	-0.028458275
72	0x3e3e3eee	0.18578693
73	0x3e4ae25f	0.19812916
74	0x3e13fa5e	0.14450976
75	0xbe8cee64	-0.27525628
76	0xbe8bdcc3	-0.27316865
77	0x3e58c854	0.21170169
78	0x3e1de7c0	0.15420437
79	0x3d534ec3	0.051588785
80	0x3e37cad0	0.1794846
81	0xbddb48d7	-0.107072525
82	0xbe42acf5	-0.1901129
83	0xbe4aa306	-0.19788751
84	0x3e0f1974	0.13974553
85	0x3d0b6477	0.034031358
86	0xbe0c78eb	-0.13718002
87	0xbddc226c	-0.10748753
88	0x3de7ad30	0.1131233
89	0x3e4f10fe	0.20221326
90	0xbd932ce5	-0.07186297
91	0x3e26c319	0.16285361
92	0xbdc65e23	-0.09685924
93	0xbe62a18a	-0.22131935
94	0x3e09f1bc	0.1347112
95	0xbdedcaa3	-0.116109155
96	0xbe28b59a	-0.16475525
97	0x3e5c093b	0.21487896
98	0xbe7484a1	-0.23878719
99	0x3cb2c3d1	0.021821888
100	0xbd572e60	-0.05253446
101	0xbd8b3754	-0.067976624
102	0xbdf9c4d5	-0.12195746
103	0xbdb6930a	-0.08914764
104	0xbde6d0d1	-0.11270297
105	0x3e274535	0.16334994
106	0x3e061fc0	0.13098049
107	0x3c0454bc	0.008076843
108	0x3e63b4aa	0.22236887
109	0x3d324926	0.04352679
110	0xbdb32724	-0.087477
111	0x3e6d3fe1	0.23168899
112	0x3dd42e27	0.10360365
113	0x3dd815ca	0.10551031
114	0x3e5243ef	0.20533727
115	0x3e02235c	0.12708801
116	0x3d995d08	0.074884474
117	0xbda387de	-0.07984899
118	0xbde57ed3	-0.112058304
119	0xbe2c8073	-0.16845874
120	0xbd5e1532	-0.054219432
121	0x3e1e7226	0.15473232
122	0xbe23d9ec	-0.160011
123	0xbe2fa541	-0.17152883
124	0xbe0aca44	-0.1355372
125	0xbd89e637	-0.06733363
126	0xbe4dfbb8	-0.20115554
127	0x3da9ef22	0.08297564
128	0xbe59c829	-0.21267761
129	0xbb34c7d6	-0.0027584932
130	0xbe18a11b	-0.14905207
131	0xbdcaccb0	-0.09902322
132	0x3db0f68e	0.086407766
133	0xbde0858f	-0.10962974
134	0x3e09c7a8	0.13455069
135	0x3e242c7b	0.16032593
136	0xbd82a0d9	-0.063783355
137	0xbe02a7ea	-0.12759367
138	0x3db03570	0.086039424
139	0x3de60904	0.11232188
140	0x3e109e0a	0.14122787
141	0x3e4c11e1	0.19928695
142	0xbdf90ae0	-0.12160277
143	0xbd72a487	-0.059238937
144	0x3d92cfcd	0.07168541
145	0x3e3a4ab3	0.18192558
146	0x3d08222d	0.033235718
147	0x3e4d5db2	0.20055273
148	0xbe1a0e57	-0.15044533
149	0x3e2c4ed6	0.16826949
150	0xbd781dd6	-0.06057533
151	0x3e585c3e	0.21128938
152	0x3e0ee2fb	0.13953774
153	0xbe329e74	-0.17443258
154	0xbcbbcfcf	-0.02292624
155	0xbe343536	-0.17598423
156	0x3dc8d603	0.098064445
157	0x3e24162a	0.1602408
158	0x3c5f0165	0.013611172
159	0x3d63f06b	0.055649202
160	0xbd423c63	-0.04742087
161	0x3e6cce4b	0.2312557
162	0xbe31ee01	-0.17375948
163	0x3ce4f1e3	0.027947372
164	0x39deaf11	0.00042473574
165	0xbdf0ede8	-0.11764127
166	0xbe1b7a0d	-0.15183277
167	0xbbc65849	-0.006053005
168	0xbde76dcc	-0.11300239
169	0x3e487a03	0.19577794
170	0x3e56588d	0.20932217
171	0x3e6322bc	0.22181219
172	0x3da2d659	0.0795104
173	0xbddcc63d	-0.107799985
174	0xbe28d7ef	-0.16488622
175	0xbe0dd656	-0.13851294
176	0x3e29abd5	0.16569455
177	0xbd6f65bd	-0.058446635
178	0x3e0a7a15	0.13523133
179	0xbe0bf288	-0.13666737
180	0xbe836175	-0.2566029
181	0x3e5b7704	0.2143212
182	0xbe053662	-0.13009027
183	0x3dfb0b48	0.12258011
184	0x3dd4c2da	0.103887275
185	0x3dc095a6	0.09403543
186	0x3e096058	0.13415658
187	0x3c161e83	0.009162548
188	0xbe36b11d	-0.17841001
189	0xbda417d0	-0.080123544
190	0x3e1ba365	0.15199049
191	0x3e322b70	0.17399383
192	0xbe272ed1	-0.16326453
193	0x3e3077f1	0.17233254
194	0x3db952c0	0.090489864
195	0xbcd4c863	-0.025974458
196	0xbdf9cc82	-0.1219721
197	0xbda919db	-0.08256885
198	0xbdab2477	-0.083565645
199	0x3e32e6f6	0.17470917
200	0xbcbfab59	-0.023397135
201	0x3dc05c5f	0.093926184
202	0xbdbc160d	-0.09183893
203	0x3db2c58b	0.087290846
204	0x3e0b3d22	0.13597539
205	0x3e41ac2e	0.18913338
206	0x3e24a2e6	0.16077766
207	0xbe0f2301	-0.13978197
208	0xbde211c1	-0.110385425
209	0xbe00fcbe	-0.12596413
210	0x3e5ba340	0.21448994
211	0xbc8788c5	-0.016544709
212	0x3e806702	0.2507859
213	0xbe5b5ccd	-0.2142212
214	0xbd194aa7	-0.03742471
215	0x3e1910dc	0.14947838
216	0xbdc85e43	-0.09783604
217	0xbe2ee59b	-0.17079775
218	0xbe11e9d3	-0.14249353
219	0xbe1f2200	-0.15540314
220	0xbe26aea5	-0.16277559
221	0xbe1ef382	-0.15522578
222	0x3e3a8b80	0.18217278
223	0x3e5f95f9	0.21834554
224	0x3e300986	0.17191133
225	0x3e37e618	0.17958868
226	0x3d50ccad	0.050976444
227	0xbd38e880	-0.045143604
228	0x3c90649d	0.017626101
229	0xbd31e81a	-0.04343424
230	0x3e012ce0	0.12614775
231	0x3e472c63	0.19450526
232	0xbe24aa4b	-0.16080587
233	0xbe90ebbc	-0.2830485
234	0xbdfe3670	-0.12412727
235	0xbe458ea7	-0.19292699
236	0xbddebc53	-0.10875764
237	0x3ea11104	0.31458294
238	0x3dad088b	0.08448895
239	0xbda1f9b2	-0.07908954
240	0xbe71dc9c	-0.23619312
241	0xbe045e9a	-0.12926713
242	0x3e26d068	0.16290438
243	0x3cbe5373	0.023233151
244	0xbe21ae81	-0.15789224
245	0xbd176e0a	-0.036970176
246	0xbdc76713	-0.09736457
247	0xbe3d0ce8	-0.18461955
248	0x3e47749d	0.19478078
249	0xbdf2a638	-0.1184811
250	0x3ba2acff	0.0049644704
251	0xbdc3ddf4	-0.095638186
252	0x3bc69c5f	0.0060611214
253	0xbe59eb0b	-0.21281068
254	0xbcf113a1	-0.029428305
255	0xbd9abeda	-0.07555933

fc2.bias f4 [10]
0	0xbd281e0e	-0.041044287
1	0x3dbf8ee4	0.09353426
2	0xbd8f36eb	-0.06992897
3	0xbe2f62ea	-0.17127576
4	0xbc95fd79	-0.018309342
5	0x3df5b793	0.11997905
6	0xbe03a0c4	-0.12854296
7	0xbdf06f28	-0.11739951
8	0x3e05c173	0.13062076
9	0xbdc4b032	-0.09603919
